src/models/model_server_30.pt (torch, 162360 bytes, 22 tensors)

weight f4 [128, 64]
-0.03679303 0.112298004 -0.1359359 -0.13896176 -0.09803644 0.041228376 0.056784436 0.06937826
-0.025041016 -0.0050977194 -0.04458233 -0.0027687554 -0.12862696 -0.043708816 -0.094368875 0.09475227
2.6335634e-05 0.038509224 -0.11266969 -0.0157428 -0.0045554116 0.06746622 0.069012694 0.18633424
0.036748715 0.095004395 0.17482068 -0.032505162 -0.06808345 -0.06513782 -0.08490646 0.1314982
-0.12044324 0.04578774 0.019149432 -0.028387362 -0.114056975 0.062480796 0.1494103 0.04883014
0.10372913 -0.01664597 0.028666377 -0.10705303 -0.080154896 -0.10241749 0.1732019 0.036726423
0.03412567 0.07542317 0.097688444 0.21871056 0.028028686 -0.028992597 0.028569201 0.008096406
-0.016718559 -0.10384822 -0.13017589 -0.0066205766 0.03437956 0.010839878 -0.121182434 0.1463973
0.09939256 -0.014491681 -0.001866203 0.035891842 0.08587253 0.0975052 -0.17159957 -0.11978435
0.08107125 0.03740511 0.18843883 0.089659244 0.04934802 -0.09977863 0.0373792 -0.11158018
-0.1325064 0.12257786 0.02964367 -0.14273444 0.021247698 -0.013874721 -0.070841916 -0.09296262
0.019954238 -0.14675018 0.042650186 -0.03470288 0.08108841 0.06901977 -0.12407857 -0.15832762
0.010548984 -0.023496794 -0.19313367 -0.12708397 0.12326608 0.07465614 -0.09900294 -0.01816376
-0.20626257 -0.03981646 0.030796366 -0.07999117 0.020307316 0.04497702 -0.15551995 0.094299465
-0.17459619 0.003462644 0.109080285 -0.15820368 -0.09320866 -0.012745632 0.0044927103 -0.032028515
0.023543043 0.024976611 -0.061325405 0.031708464 -0.11575046 -0.13645867 -0.050786264 -0.19316941
-0.11025961 -0.06711307 -0.084731534 -0.016070072 -0.1291944 0.009187133 0.17131291 -0.057345033
-0.0046528573 -0.04573651 0.03166668 0.10537242 0.10984966 0.10394792 0.055072315 0.15709393
-0.1509911 -0.08673012 0.036773093 0.02807955 -0.10486576 -0.121532455 0.05018814 0.07469756
0.044346996 0.2003237 0.13147904 0.013664158 0.08220577 -0.11954884 -0.05349116 -0.03867287
-0.06454506 0.20775758 0.13069914 0.042741526 -0.049216222 -0.033052146 0.12477138 0.014057221
0.08094463 0.043430425 0.13207456 -0.055676054 0.112530544 -0.021951003 0.0752401 0.054199718
0.16060767 0.054075114 0.10582086 0.08063794 -0.039639927 -0.059358794 0.04289604 0.1791205
0.023726221 0.015425561 -0.06752528 0.037785567 -0.15614 0.030379955 0.06297113 0.33102247
0.0033258505 0.032381155 -0.031556934 -0.00961113 0.0002102718 0.06781975 -0.09277187 -0.073359765
0.123382345 0.002639341 0.07367951 -0.06760424 0.031869113 0.123698406 0.05088508 0.11604132
0.06426269 0.09266718 -0.047372878 -0.006889073 0.07315844 0.04424209 -0.0051902193 0.030453714
-0.09040221 -0.0779898 0.13171603 -0.13140729 0.03425188 0.22297737 0.09186122 -0.030377941
-0.14604674 0.0713623 -0.107059106 -0.042002566 0.027575644 0.0039420584 0.009826062 0.16485201
-0.0025116696 0.11413835 0.2762581 -0.027455231 0.11049238 0.004626658 -0.086782 0.13104668
0.017205646 0.047591746 0.012056492 -0.0005996921 0.028284688 -0.11787482 0.1303491 -0.106426
0.0033186695 0.042068824 -0.023406988 0.022736793 0.16796763 -0.10071506 -0.06534393 -0.08130214
00000000: 4ab4 16bd 7ffc e53d c832 0bbe fe4b 0ebe
00000010: 54c7 c8bd 16df 283d cc96 683d 3016 8e3d
00000020: d122 cdbc c50a a7bb f69b 36bd 0274 35bb
00000030: c9b6 03be 0408 33bd 7844 c1bd 7a0d c23d
00000040: 58eb dc37 d9bb 1d3d 5ebf e6bd 0bf7 80bc
00000050: 9045 95bb bb2b 8a3d 8756 8d3d 67ce 3e3e
00000060: d285 163d aa91 c23d 3104 333e 2224 05bd
00000070: 566f 8bbd fa66 85bd 70e3 adbd 77a7 063e
00000080: f2aa f6bd ed8b 3b3d 45df 9c3c 9d8c e8bc
00000090: b496 e9bd ddeb 7f3d 04ff 183e 1d02 483d
000000a0: f06f d43d 215d 88bc c0d5 ea3c 9e3e dbbd
000000b0: 4028 a4bd 43c0 d1bd d75b 313e 726e 163d
000000c0: 5cc7 0b3d 7777 9a3d e110 c83d a9f5 5f3e
000000d0: 6a9c e53c e281 edbc f509 ea3c caa6 043c
000000e0: 5cf5 88bc 60ae d4bd d44c 05be 6cf1 d8bb
000000f0: 95d1 0c3d be99 313c 7f2e f8bd 2ce9 153e
00000100: 548e cb3d 846e 6dbc 629b f4ba 5303 133d
00000110: f0dd af3d ceb0 c73d ccb7 2fbe 7f51 f5bd
00000120: af08 a63d 1a36 193d 1cf6 403e 449f b73d
00000130: 2621 4a3d bd58 ccbd ef1a 193d 2684 e4bd
00000140: c2af 07be 1a0a fb3d 48d7 f23c fa28 12be
00000150: a70f ae3c cc52 63bc 9115 91bd 3063 bebd
00000160: 1277 a33c ae45 16be f6b1 2e3d 9b24 0ebd
00000170: ae11 a63d 3d5a 8d3d e81c febd a320 22be
00000180: a5d5 2c3c 597c c0bc d5c4 45be 4d22 02be
00000190: ed72 fc3d 51e5 983d 0ec2 cabd 2acc 94bc
000001a0: 7f36 53be 9616 23bd a948 fc3c 69d2 a3bd
000001b0: 875b a63c d339 383d 9f40 1fbe 1420 c13d
000001c0: 58c9 32be 87ed 623b 7c65 df3d 2500 22be
000001d0: 2fe4 bebd 0ed3 50bc 9637 933b 5530 03bd
000001e0: 57dd c03c c09b cc3c 5930 7bbd bce0 013d
000001f0: 940e edbd d2bb 0bbe 4205 50bd 34ce 45be
00000200: cacf e1bd 9472 89bd ba87 adbd 62a5 83bc
00000210: 894b 04be a185 163c a76c 2f3e a0e2 6abd
00000220: ff76 98bb 3556 3bbd ecb4 013d 7fcd d73d
00000230: dcf8 e03d a6e2 d43d 8293 613d 3bdd 203e
00000240: 699d 1abe 909f b1bd 629f 163d 1607 e63c
00000250: dcc3 d6bd 02e6 f8bd 1492 4d3d 09fb 983d
00000260: 32a5 353d a821 4d3e 71a2 063e a2df 5f3c
00000270: 805b a83d 06d6 f4bd 8c19 5bbd 7167 1ebd
00000280: 3330 84bd 67be 543e ffd5 053e bd11 2f3d
00000290: f396 49bd b061 07bd 2388 ff3d 4250 663c
000002a0: 4cc6 a53d 1ae4 313d 8e3e 073e 930c 64bd
000002b0: 6a76 e63d 97d2 b3bc 7b17 9a3d 8600 5e3d
000002c0: 5676 243e de7d 5d3d 9bb8 d83d 8125 a53d
000002d0: 7a5d 22bd 3522 73bd c2b3 2f3d 5d6b 373e
000002e0: 7e5d c23c 7ebb 7c3c b24a 8abd 0ac5 1a3d
000002f0: 2ae3 1fbe 62df f83c 02f7 803d c77b a93e
00000300: 83f6 593b 1aa2 043d d841 01bd 0078 1dbc
00000310: 687c 5c39 15e5 8a3d 2eff bdbd a53d 96bd
00000320: e2af fc3d cbf8 2c3b 48e5 963d 1774 8abd
00000330: 3089 023d 9755 fd3d e06c 503d 12a7 ed3d
00000340: 289c 833d 4ac8 bd3d 100a 42bd bcbd e1bb
00000350: 18d4 953d 3237 353d b712 aabb 117a f93c
00000360: cb24 b9bd 1eb9 9fbd 91e0 063e a28f 06be
00000370: b34b 0c3d 2e54 643e bc21 bc3d 29db f8bc
00000380: 478d 15be 6626 923d ce41 dbbd e20a 2cbd
00000390: 51e6 e13c 622c 813b 7efd 203c f7ce 283e
000003a0: d39a 24bb 5ec1 e93d b471 8d3e cbe9 e0bc
000003b0: d449 e23d 389b 973b c3ba b1bd 1a31 063e
000003c0: dbf2 8c3c 90ef 423d 9888 453c a834 1dba
000003d0: 4ab5 e73c 5b68 f1bd 3c7a 053e e0f5 d9bd
000003e0: 097e 593b 5c50 2c3d 03c0 bfbc 8342 ba3c
000003f0: b5ff 2b3e b343 cebd 0ad3 85bd bd81 a6bd

bias f4 [128]
-0.0041801096 0.055365544 0.017319335 -0.078878 -0.038736925 -0.081865385 0.029965343 0.09386343
-0.07230787 0.042164676 -0.09679213 0.05110559 -0.117346734 -0.04900021 -0.0014068815 -0.020952486
0.07031901 -0.049725432 0.041601103 0.054329522 0.03402974 -0.1217471 -0.06956718 -0.030685844
-0.0021876404 0.048008237 0.087916166 0.025801128 -0.08555539 -0.12537794 0.11199156 0.00039714112
-0.108982794 -0.034255862 0.047819722 -0.0042301314 0.08260145 -0.021499414 0.017204788 0.1169049
-0.111221835 0.012397756 -0.1012894 -0.08510983 -0.117000684 0.06109359 -0.02471209 0.045526534
0.014139709 0.040543463 -0.10505885 -0.045646086 -0.03419853 -0.09096266 0.053363923 0.0708034
-0.045184594 -0.08562279 -0.06528312 -0.1164138 -0.08124454 -0.0343231 0.02013003 -0.05973009
-0.10196273 0.063299954 0.09952371 0.006031384 -0.018411802 -0.055303454 0.040838104 0.009972586
-0.057143833 0.085972756 0.073165074 0.09219128 0.08630043 -0.074009754 0.11465043 -0.0024741385
-0.11487904 0.07891154 -0.08032684 -0.058812026 0.024482401 0.08875567 0.020102296 -0.106913485
-0.085223384 0.04627553 -0.034450114 0.03392051 0.108765066 -0.08128613 -0.10807286 -0.041971397
-0.00964993 -0.041633263 0.12210269 -0.0747513 0.07241073 0.04871291 0.114264384 -0.120326355
0.09135065 -0.03980504 -0.043696586 0.00470443 0.084338956 0.06408869 -0.07281903 0.030092059
-0.004995346 0.041281674 -0.000101481935 -0.031291775 0.05823131 0.106694765 0.06616535 -0.04123337
0.0018134614 0.023497107 -0.072435915 0.105973475 0.06599217 0.05392167 0.11697603 -0.016006349
00000000: 4df9 88bb fbc6 623d 47e1 8d3c ca8a a1bd
00000010: 9caa 1ebd 0aa9 a7bd e179 f53c 783b c03d
00000020: 2616 94bd deb4 2c3d f43a c6bd 1854 513d
00000030: 7c53 f0bd 72b4 48bd 1c67 b8ba 8ca4 abbc
00000040: 6a03 903d e5ac 4bbd eb65 2a3d a288 5e3d
00000050: c562 0b3d 8b56 f9bd 3d79 8ebd e160 fbbc
00000060: 845e 0fbb 49a4 443d 640d b43d e35c d33c
00000070: aa37 afbd 1363 00be d55b e53d 6137 d039
00000080: 5f32 dfbd e04f 0cbd 9dde 433d ea9c 8abb
00000090: f32a a93d 8a1f b0bc 0ef1 8c3c d66b ef3d
000000a0: 46c8 e3bd f51f 4b3c d170 cfbd 104e aebd
000000b0: 0e9e efbd 463d 7a3d 0271 cabc 087a 3a3d
000000c0: 3daa 673c e710 263d 1829 d7bd 64f7 3abd
000000d0: c213 0cbd a24a babd 2194 5a3d 5f01 913d
000000e0: 7b13 39bd 005b afbd 28b3 85bd 5c6a eebd
000000f0: 8a63 a6bd 6196 0cbd bce7 a43c 8aa7 74bd
00000100: d6d1 d0bd 68a3 813d 16d3 cb3d eba2 c53b
00000110: 59d4 96bc e085 62bd db45 273d 0f64 233c
00000120: a70f 6abd 7c12 b03d 92d7 953d c8ce bc3d
00000130: 48be b03d 6d92 97bd d8cd ea3d 2825 22bb
00000140: b445 ebbd 609c a13d 6682 a4bd e1e4 70bd
00000150: 518f c83c 88c5 b53d 92ad a43c 75f5 dabd
00000160: 9989 aebd 698b 3d3d 901b 0dbd 3cf0 0a3d
00000170: 38c0 de3d 5879 a6bd 4e55 ddbd 33ea 2bbd
00000180: bd1a 1ebc a487 2abd fa10 fa3d 3617 99bd
00000190: 144c 943d 3087 473d 7203 ea3d aa6d f6bd
000001a0: 0d16 bb3d 9c0a 23bd 31fb 32bd 9e27 9a3b
000001b0: e7b9 ac3d ee40 833d 2522 95bd 9f83 f63c
000001c0: 00b0 a3bb f916 293d b3d2 d4b8 ce2b 00bd
000001d0: f483 6e3d c982 da3d b381 873d 52e4 28bd
000001e0: abb1 ed3a 017d c03c 4859 94bd 9f08 d93d
000001f0: e726 873d f8dc 5c3d 2191 ef3d bf1f 83bc

weight f4 [128]
0.94406587 0.91460043 1.062635 0.9032022 0.9112662 0.87910765 0.8443009 0.8497314
0.97189593 0.86322576 0.8397249 1.0853616 0.8753243 0.8329539 0.8297026 0.81273186
0.7405875 0.95087594 0.80921006 1.0813138 0.811431 1.0036038 0.87205505 1.0869678
0.80713284 0.72203225 0.9685054 0.9434477 0.72809595 0.93014336 0.8507646 0.65812206
0.93251574 0.89193076 0.969712 0.86380535 1.020983 0.8913521 1.0259843 0.8833599
0.82155895 0.92029834 0.8360258 0.8864249 0.83375174 0.8497369 0.83551836 0.92646706
0.91194534 0.7666118 0.80747914 1.0223106 0.8397026 0.9926263 0.99565965 0.87127435
0.9153451 0.9234153 0.9192041 0.8318763 0.8406916 0.69913787 0.9317106 0.8586397
0.7275444 0.88554794 0.6676624 0.915232 1.01137 0.8179979 0.8964545 0.9922782
0.79815257 0.9277937 0.8926016 0.83792084 0.86915565 0.9838872 1.0960468 0.85463834
1.0243716 0.8695262 0.89379126 0.99523544 1.0036 0.8834442 0.8912469 0.9047719
0.8926256 0.884965 0.81853724 0.89502174 0.937458 0.8856589 0.8578093 0.83382446
0.8569945 0.92532575 0.7792615 0.80913895 0.85606074 0.877315 1.0747424 0.8529552
0.92468953 0.89644116 0.9352879 0.8766419 0.94697315 0.8761359 0.9565798 0.8350318
0.9525163 0.83414197 0.87982404 0.8879399 0.93125105 0.9069051 0.9089422 0.890593
0.91481984 0.9317749 0.84969157 0.78832054 0.74103314 0.81027234 1.0795527 0.87995815
00000000: 4dae 713f 4123 6a3f 6c04 883f 4238 673f
00000010: be48 693f 330d 613f 1b24 583f ff87 593f
00000020: 2cce 783f 5dfc 5c3f 36f8 563f 21ed 8a3f
00000030: 4115 603f 773c 553f 6467 543f 320f 503f
00000040: 2497 3d3f 9b6c 733f 6428 4f3f 7e68 8a3f
00000050: f1b9 4f3f 1776 803f 003f 5f3f c321 8b3f
00000060: 42a0 4e3f 1bd7 383f f8ef 773f ca85 713f
00000070: 7f64 3a3f e01d 6e3f b5cb 593f b07a 283f
00000080: 5ab9 6e3f 9355 643f 0c3f 783f 5922 5d3f
00000090: 92af 823f a72f 643f 7453 833f e023 623f
000000a0: b051 523f ac98 6b3f c905 563f beec 623f
000000b0: c170 553f 5c88 593f 88e4 553f f22c 6d3f
000000c0: 4075 693f ac40 443f f4b6 4e3f 13db 823f
000000d0: c0f6 563f c21c 7e3f 8de3 7e3f d60b 5f3f
000000e0: 0e54 6a3f f264 6c3f f650 6b3f d8f5 543f
000000f0: 9137 573f b3fa 323f 9684 6e3f d0cf 5b3f
00000100: 5a40 3a3f 45b3 623f eceb 2a3f a54c 6a3f
00000110: 9274 813f 4f68 513f 0b7e 653f f205 7e3f
00000120: ba53 4c3f e383 6d3f 8a81 643f fb81 563f
00000130: fc80 5e3f 08e0 7b3f 434b 8c3f 94c9 5a3f
00000140: 9c1e 833f 4599 5e3f 81cf 643f c0c7 7e3f
00000150: f775 803f 6629 623f c228 643f 229f 673f
00000160: 1c83 643f 118d 623f a88b 513f 2520 653f
00000170: 3ffd 6f3f 8bba 623f 6499 5b3f 8575 553f
00000180: fe63 5b3f 26e2 6c3f af7d 473f bb23 4f3f
00000190: cc26 5b3f b797 603f 2991 893f 465b 5a3f
000001a0: 74b8 6c3f 2b7d 653f 076f 6f3f 9b6b 603f
000001b0: d56c 723f 714a 603f 6ae2 743f a5c4 553f
000001c0: 1cd8 733f 548a 553f 263c 613f 0750 633f
000001d0: 7866 6e3f ef2a 683f 70b0 683f e7fd 633f
000001e0: a231 6a3f cd88 6e3f 6385 593f 60cf 493f
000001f0: 59b4 3d3f 026e 4f3f c82e 8a3f f044 613f

bias f4 [128]
-0.21948877 -0.122563526 0.11564829 -0.2014467 0.09197551 0.016817058 0.01342272 0.007066112
-0.039507095 0.015028953 0.05347426 0.2865278 -0.20533442 -0.1324096 -0.29193458 -0.010356987
0.06477871 -0.40382206 -0.119608514 0.015231267 -0.15819962 0.42290154 -0.3673914 0.22260681
-0.27996236 -0.025861999 -0.26868087 -0.20645905 -0.2720216 0.086978346 -0.37142166 -0.103186645
-0.22589163 0.059108682 0.079163514 -0.050330743 0.11735524 -0.3283494 0.010821101 -0.09820545
-0.23065847 -0.24137245 -0.21896222 -0.20796129 -0.18014254 -0.02499789 -0.23100732 -0.17168729
-0.27426797 -0.2511609 -0.16792591 0.041648913 -0.2925387 0.10054805 0.050639123 -0.28156748
-0.0047113206 0.05603413 0.03233318 -0.11230901 -0.040657006 -0.18957642 -0.34494412 -0.20636502
-0.21432959 -0.3493272 -0.11791023 -0.28295514 0.16347629 0.093091026 -0.11303673 -0.12498856
-0.2962178 -0.2240875 -0.26274946 0.08384303 -0.07335497 -0.007108907 0.14632232 -0.33619994
-0.008068869 -0.24823724 -0.24768688 0.18969765 -0.055351254 -0.36423922 -0.18271014 -0.39427012
-0.20706655 -0.37582508 -0.16759348 -0.00076179067 0.35721412 -0.3571311 -0.023063464 0.020534152
-0.32680714 -0.25826064 -0.27080593 -0.22725835 -0.19605789 -0.29399887 0.00705023 0.0780963
-0.09993146 -0.31532195 -0.21844654 -0.22280651 -0.085735366 0.11268622 -0.26479062 -0.27885514
-0.2879349 -0.19635332 -0.36847606 0.09921144 -0.24214105 -0.3123169 -0.16895857 -0.38410434
-0.31188154 0.24977905 -0.003873882 -0.11642185 -0.17408778 0.13750613 0.05396267 -0.33885556
00000000: aac1 60be 9602 fbbd 03d9 ec3d 0b48 4ebe
00000010: a85d bc3d edc3 893c f8ea 5b3c d88a e73b
00000020: 31d2 21bd ff3b 763c d307 5b3d c6b3 923e
00000030: 3043 52be 6296 07be 7378 95be 5ab0 29bc
00000040: b3aa 843d c4c1 cebe 4ff5 f4bd 908c 793c
00000050: 15ff 21be 8d86 d83e ba1a bcbe 0af3 633e
00000060: 3a57 8fbe 8bdc d3bc 8a90 89be 006a 53be
00000070: 6a46 8bbe b421 b23d fb2a bebe 8553 d3bd
00000080: 2350 67be f21b 723d 7b20 a23d 9c27 4ebd
00000090: f257 f03d 6a1d a8be fd4a 313c f01f c9bd
000000a0: bc31 6cbe 572a 77be a237 60be cef3 54be
000000b0: 4977 38be 60c8 ccbc 2f8d 6cbe cbce 2fbe
000000c0: da6c 8cbe 2998 80be c5f4 2bbe 0d98 2a3d
000000d0: a2c7 95be 23ec cd3d f86a 4f3d 9d29 90be
000000e0: 6c61 9abb 0b84 653d cc6f 043d 4402 e6bd
000000f0: f687 26bd 5220 42be 849c b0be 5a51 53be
00000100: 3779 5bbe 04db b2be eb7a f1bd 7fdf 90be
00000110: 5466 273e 82a6 be3d cd7f e7bd 01fa ffbd
00000120: dca9 97be 3277 65be 1987 86be e5b5 ab3d
00000130: 213b 96bd d6f1 e8bb 85d5 153e 6622 acbe
00000140: 4a33 04bc e731 7ebe a1a1 7dbe 1a40 423e
00000150: ffb7 62bd 907d babe 5e18 3bbe c6dd c9be
00000160: 4109 54be 256c c0be a09d 2bbe e8b2 47ba
00000170: c5e4 b63e e3d9 b6be 97ef bcbc 3d37 a83c
00000180: 4453 a7be bd3a 84be 13a7 8abe 6ab6 68be
00000190: 66c3 48be 0587 96be 9e05 e73b f4f0 9f3d
000001a0: dea8 ccbd e171 a1be 73b0 5fbe 6427 64be
000001b0: 0696 afbd 08c8 e63d a392 87be 1ac6 8ebe
000001c0: 346c 93be d810 49be e5a8 bcbe 5e2f cb3d
000001d0: d3f3 77be 00e8 9fbe 7a03 2dbe 53a9 c4be
000001e0: f0ae 9fbe 14c6 7f3e f4e0 7dbb 946e eebd
000001f0: 1144 32be 68ce 0c3e f607 5d3d 7a7e adbe

running_mean f4 [128]
201.81319 -800.79596 894.2737 605.0572 667.2937 110.57447 838.59424 1511.3035
-409.7342 151.83157 1859.2479 1518.1306 -9.635105 351.63397 1532.9086 759.6273
803.91504 765.1241 481.30203 -532.46484 1460.579 476.22638 255.39389 2416.8186
380.28415 17.970646 -454.38818 1264.5823 1131.3694 -1031.8745 393.44647 -1351.856
478.08118 678.0811 1935.8145 -843.9052 -728.5856 -434.22083 223.67642 594.2633
955.07935 -538.58154 -363.46094 443.79803 115.971176 -702.69165 -1267.884 207.30212
519.11145 1597.8281 420.35675 354.7661 1794.5234 -227.05225 2278.1052 605.0652
2167.7212 445.826 -248.40027 734.88196 401.87894 238.65912 200.29637 578.21533
215.04233 871.9629 1021.6676 -518.69995 1904.4916 184.85413 -1075.9512 -309.74884
1288.6969 -193.31581 1467.1697 1223.3912 1943.9248 -422.34326 -410.15668 1009.55695
1877.0045 -1402.4955 724.7989 2075.1536 -759.92957 -1325.4644 -968.7134 250.5267
1411.7999 -17.935265 1079.5448 720.3034 125.69096 1383.5547 1302.5994 -947.2195
1577.3857 521.07935 -18.774574 981.4734 1131.3951 -211.26137 -776.8549 1223.3677
-413.79465 88.32561 -468.97498 -137.37582 -344.86374 775.88495 187.69872 1554.8341
683.77106 494.07578 1772.2358 427.07776 468.97055 1376.0676 659.911 416.97797
2108.6924 -246.63222 1238.8458 -557.446 1517.9908 459.0229 -292.0191 309.6092
00000000: 2dd0 4943 f132 48c4 8491 5f44 a943 1744
00000010: ccd2 2644 2126 dd42 08a6 5144 b6e9 bc44
00000020: fadd ccc3 e2d4 1743 ef67 e844 2ec4 bd44
00000030: 6429 1ac1 26d1 af43 139d bf44 26e8 3d44
00000040: 90fa 4844 f147 3f44 a9a6 f043 c01d 05c4
00000050: 8792 b644 fa1c ee43 d664 7f43 190d 1745
00000060: 5f24 be43 e2c3 8f41 b031 e3c3 a212 9e44
00000070: d26b 8d44 fcfb 80c4 26b9 c443 64fb a8c4
00000080: 640a ef43 3185 2944 10fa f144 eff9 52c4
00000090: 7a25 36c4 441c d9c3 2aad 5f43 da90 1444
000000a0: 14c5 6e44 38a5 06c4 00bb b5c3 26e6 dd43
000000b0: 3ef1 e742 44ac 2fc4 4a7c 9ec4 584d 4f43
000000c0: 22c7 0144 80ba c744 aa2d d243 1062 b143
000000d0: c050 e044 600d 63c3 af61 0e45 2c44 1744
000000e0: 8a7b 0745 bae9 de43 7866 78c3 72b8 3744
000000f0: 81f0 c843 bca8 6e43 df4b 4843 c88d 1044
00000100: d60a 5743 a0fd 5944 ba6a 7f44 ccac 01c4
00000110: bb0f ee44 a8da 3843 707e 86c4 dadf 9ac3
00000120: 4d16 a144 d950 41c3 6e65 b744 85ec 9844
00000130: 98fd f244 f02b d3c3 0e14 cdc3 a563 7c44
00000140: 25a0 ea44 db4f afc4 2133 3544 75b2 0145
00000150: 7efb 3dc4 dcae a5c4 a82d 72c4 d686 7a43
00000160: 9979 b044 6c7b 8fc1 6ff1 8644 6b13 3444
00000170: c661 fb42 c0f1 ac44 2ed3 a244 0cce 6cc4
00000180: 582c c544 1445 0244 5432 96c1 4c5e 7544
00000190: a56c 8d44 e942 53c3 b736 42c4 c4eb 9844
000001a0: b7e5 cec3 b6a6 b042 cc7c eac3 3660 09c3
000001b0: 8f6e acc3 a3f8 4144 dfb2 3b43 b15a c244
000001c0: 59f1 2a44 b309 f743 8c87 dd44 f489 d543
000001d0: 3b7c ea43 2a02 ac44 4efa 2444 2e7d d043
000001e0: 14cb 0345 d9a1 76c3 11db 9a44 8b5c 0bc4
000001f0: b5bf bd44 ee82 e543 7202 92c3 facd 9a43

running_var f4 [128]
182399.5 880652.5 1.0801456e+06 473047.47 900245.0 98139.23 947576.2 2.6953685e+06
274536.5 212418.05 4.0750975e+06 2.7512468e+06 208308.61 285505.44 2.7784848e+06 749388.75
819602.44 921031.94 380712.22 460735.75 2.5241628e+06 318040.62 282159.8 6.890414e+06
298207.8 130390.8 352809.75 1.8926865e+06 1.6540256e+06 1.4350998e+06 437894.25 2.4294012e+06
316325.03 576440.6 4.523596e+06 963301.44 709437.75 252673.33 114594.46 508228.12
1.2229781e+06 399694.0 159539.81 312623.16 120525.945 767071.4 1.9007422e+06 175479.55
579597.9 3.0179805e+06 273256.5 453640.5 3.8196958e+06 300274.06 6.138042e+06 618246.4
5.5597925e+06 273598.28 221413.17 894255.75 443297.75 235655.28 114936.35 661193.6
257996.67 984153.56 1.2405734e+06 337586.0 4.337906e+06 173609.1 1.384483e+06 222130.16
1.9917484e+06 89872.24 2.5659975e+06 1.843043e+06 4.481255e+06 402600.06 268242.66 1.3358982e+06
4.1763265e+06 2.3445605e+06 748829.4 5.083539e+06 801762.94 2.078955e+06 1.1447771e+06 248639.22
2.3934972e+06 87458.81 1.5582306e+06 685138.25 186693.45 2.2827665e+06 2.0070128e+06 1.1616384e+06
2.9395e+06 361264.1 76781.875 1.240207e+06 1.596655e+06 168064.34 858766.06 1.8661449e+06
241974.36 89553.27 279545.78 116291.734 285480.4 718155.06 137237.31 2.897211e+06
617600.6 371547.72 3.714084e+06 430915.25 295162.28 2.248111e+06 558325.25 559027.9
5.2548385e+06 165089.08 1.8624876e+06 534993.0 2.739175e+06 461993.28 378422.25 256051.1
00000000: e01f 3248 c800 5749 8dda 8349 effa e648
00000010: 50c9 5b49 9dad bf47 8357 6749 2283 244a
00000020: 100d 8648 8370 4f48 66b9 784a 3bec 274a
00000030: 276d 4b48 2e68 8b48 d395 294a ccf4 3649
00000040: 2719 4849 7fdc 6049 07e5 b948 f8f7 e048
00000050: 0b10 1a4a 144b 9b48 fac5 8948 5c47 d24a
00000060: fa9b 9148 66ab fe47 3845 ac48 740a e749
00000070: 4de8 c949 de2e af49 c8d0 d548 6547 144a
00000080: a174 9a48 8abb 0c49 980c 8a4a 572e 6b49
00000090: dc33 2d49 55c0 7648 3bd1 df47 8428 f848
000000a0: 114a 9549 c029 c348 f4cc 1b48 e5a5 9848
000000b0: f966 eb47 f645 3b49 3206 e849 e35d 2b48
000000c0: de80 0d49 f233 384a 106d 8548 1081 dd48
000000d0: bf22 694a 429e 9248 7451 bb4a 66f0 1649
000000e0: e1ab a94a c997 8548 4b39 5848 fc52 5a49
000000f0: 3874 d848 d221 6648 2d7c e047 9a6c 2149
00000100: 2bf3 7b48 9945 7049 eb6f 9749 40d6 a448
00000110: e461 844a 468a 2948 1801 a949 8aec 5848
00000120: 2322 f349 1f88 af47 b69d 1c4a 18fb e049
00000130: cec1 884a 0295 c448 55fa 8248 d212 a349
00000140: 1ae7 7e4a c219 0f4a d6d1 3649 2623 9b4a
00000150: 2fbe 4349 58c7 fd49 49be 8b49 cecf 7248
00000160: 6516 124a 68d1 aa47 b536 be49 2445 2749
00000170: 5d51 3648 3a54 0b4a 26ff f449 33cd 8d49
00000180: b069 334a 0366 b048 f0f6 9547 7864 9749
00000190: 78e7 c249 1620 2448 e1a8 5149 07cd e349
000001a0: 974d 6c48 a3e8 ae47 397f 8848 de21 e347
000001b0: 0d65 8b48 b154 2f49 5405 0648 ecd4 304a
000001c0: 0ac8 1649 776b b548 90b0 624a 6868 d248
000001d0: 491f 9048 bc36 094a 544f 0849 3e7b 0849
000001e0: 6d5d a04a 4538 2148 bd5a e349 109d 0249
000001f0: 9c2f 274a 2995 e148 c8c6 b848 c60c 7a48

weight f4 [64, 128]
0.053284112 0.0029106906 0.078115284 -0.06709064 -0.08852449 0.04321802 0.033487562 -0.09403474
0.028320268 -0.048678692 0.0069485228 0.08754284 0.081310324 -0.031935748 0.047634866 -0.08086287
-0.02596256 0.031233579 0.041858077 -0.0040974724 0.019410089 0.020138832 0.019945925 -0.07294773
-0.06540862 -0.0047578844 -0.0024067934 0.05162129 0.015740527 -0.055485155 0.015391043 -0.018546553
-0.06599871 -0.010496024 0.07389077 0.08396041 0.06049714 -0.021844238 -0.042302903 0.03415605
0.0386097 0.034087155 -0.12682356 0.00934239 -0.0870605 0.016487574 0.046989765 0.020075073
0.073236726 0.0707239 -0.0847277 -0.053319126 0.042756673 -0.012744055 -0.09116104 0.059839662
-0.06557863 -0.11452413 -0.07852117 -0.050360914 -0.016860634 0.036566857 -0.0014185562 -0.05964965
0.032475825 0.004752654 -0.060271323 0.0016979863 0.04101597 -0.059397463 0.009966946 0.01250524
-0.09940046 0.041686043 0.047679637 -0.03622305 0.053313855 -0.029391633 -0.055825856 0.023104502
-0.106193654 -0.08240353 -0.080180526 -0.013188974 -0.04195976 -0.01718112 -0.026079519 0.046861473
0.045199756 -0.09480131 -0.08147237 -0.012654319 0.045323964 0.036483485 0.061551753 -0.050545786
0.08434259 0.05645347 -0.0819945 -0.11184549 -0.12598622 0.015095712 -0.047796696 -0.08373798
-0.022771882 0.02743912 -0.023569925 -0.08193049 -0.096243024 0.006615669 0.021772085 -0.047471765
-0.044991847 0.013128423 -0.04273394 -0.10045916 0.09478968 0.04042907 -0.00080868887 -0.010946431
0.03717299 -0.12492298 -0.07135747 -0.048957676 -0.066773295 0.031946775 -0.110925324 -0.040081177
0.07885306 0.0460344 0.050512776 0.01407541 0.048339307 -0.03745021 -0.044529114 0.007748555
-0.04825189 0.06919635 -0.035312846 0.09985189 0.042990796 0.013930131 0.0424169 0.0061078817
-0.011482628 -0.007818474 0.07660561 -0.12053062 -0.015964657 0.14934988 0.031558722 0.1095892
-0.017563852 -0.026904063 0.011661576 0.048463166 0.019953681 -0.04156186 0.052487943 -0.030399842
-0.059763562 0.0107820695 0.074883014 -0.021859912 -0.057225294 0.06727446 -0.13495874 0.066716604
0.0068540014 -0.014628305 0.012319825 -0.038039908 -0.06015218 -0.087296106 0.089435466 0.0445499
0.12539446 -0.05915066 -0.044459872 -0.031254362 -0.025972778 -0.15478322 -0.13837278 0.06807498
-0.047869854 0.010062551 -0.00860329 0.0032796697 0.0008945443 0.023532134 -0.085570574 -0.018921703
-0.027014079 -0.025194183 0.06342306 0.056047924 0.11570777 0.050152145 0.065093905 -0.03367802
-0.0021753884 -0.10125156 0.062573455 0.06290664 0.10442624 -0.07992845 -0.14022459 -0.017229188
-0.018834759 0.03812096 0.055994228 0.11766784 0.023325903 -0.03798187 0.0050294925 0.08672651
0.06944969 0.008223206 0.06344628 0.019746821 0.15765096 -0.05074714 -0.019828063 -0.0052533997
0.11084451 -0.05114483 0.089026034 0.020668084 0.037655253 0.009740227 -0.06883705 -0.0054139807
-0.114183076 0.07731094 -0.07514843 0.037248068 -0.06005918 -0.0014345513 0.05296645 0.09763981
0.032911174 0.06025163 0.06165263 -0.03804813 0.0851636 -0.026513489 0.016539533 -0.039657608
0.058353603 -0.20124446 0.034580603 0.033311438 0.008388425 0.04531313 -0.10596822 0.10272999
00000000: 7140 5a3d 49c1 3e3b e8fa 9f3d d166 89bd
00000010: 544c b5bd 6105 313d 412a 093d 4995 c0bd
00000020: e8ff e73c 4f63 47bd 6fb0 e33b a949 b33d
00000030: 0786 a63d 0fcf 02bd c71c 433d 6f9b a5bd
00000040: 6faf d4bc 90dd ff3c 6073 2b3d 1744 86bb
00000050: e801 9f3c 31fa a43c a365 a33c 9f65 95bd
00000060: f4f4 85bd 07e8 9bbb 4bbb 1dbb d970 533d
00000070: 47f2 803c 6744 63bd b72a 7c3c f1ee 97bc
00000080: 552a 87bd 84f7 2bbc 0b54 973d 6ff3 ab3d
00000090: d9cb 773d b0f2 b2bc cf45 2dbd 37e7 0b3d
000000a0: 3425 1e3d f99e 0b3d 09de 01be d310 193c
000000b0: c74c b2bd f310 873c 5778 403d 7b74 a43c
000000c0: 23fd 953d b1d7 903d b785 adbd 2865 5abd
000000d0: 9f21 2f3d 71cc 50bc a4b2 babd 6f1a 753d
000000e0: 174e 86bd a18b eabd b5cf a0bd 3f47 4ebd
000000f0: 501f 8abc 21c7 153d d9ee b9ba 3153 74bd
00000100: 5f05 053d 27bc 9b3b 10df 76bd f78e de3a
00000110: 5d00 283d c14a 73bd 674c 233c c7e2 4c3c
00000120: 7892 cbbd fcbe 2a3d b94b 433d 9f5e 14bd
00000130: a15f 5a3d b9c6 f0bc a7a9 64bd a745 bd3c
00000140: 0f7c d9bd 2fc3 a8bd b035 a4bd 9116 58bc
00000150: ffdd 2bbd 6cbf 8cbc b7a4 d5bc d1f1 3f3d
00000160: 6123 393d 3027 c2bd fcda a6bd 1054 4fbc
00000170: 9fa5 393d b56f 153d b11d 7c3d 1909 4fbd
00000180: cfbb ac3d c13b 673d bbec a7bd 400f e5bd
00000190: 8802 01be 0154 773c 78c6 43bd d17e abbd
000001a0: 198c babc 01c8 e03c b715 c1bc 2ccb a7bd
000001b0: 101b c5bd 41c8 d83b 5f5b b23c c171 42bd
000001c0: 5f49 38bd 9918 573c c909 2fbd 88bd cdbd
000001d0: 1721 c23d f498 253d 31fe 53ba a958 33bc
000001e0: b542 183d 9fd7 ffbd dd23 92bd d887 48bd
000001f0: 70c0 88bd 9fda 023d d12c e3bd 292c 24bd
00000200: b77d a13d 918e 3c3d 7ce6 4e3d 8c9c 663c
00000210: 70ff 453d 6465 19bd 2964 36bd 97e7 fd3b
00000220: c6a3 45bd d1b6 8d3d 34a4 10bd 267f cc3d
00000230: 1e17 303d 343b 643c 58bd 2d3d a024 c83b
00000240: a221 3cbc 0f19 00bc 67e3 9c3d c2d8 f6bd
00000250: 50c8 82bc 2def 183e b843 013d 4d70 e03d
00000260: 11e2 8fbc e965 dcbc 3210 3f3c 5081 463d
00000270: e775 a33c c53c 2abd 99fd 563d 1709 f9bc
00000280: a3ca 74bd 47a7 303c 445c 993d 8f13 b3bc
00000290: 1265 6abd 31c7 893d a032 0abe b7a2 883d
000002a0: 8897 e03b 8fab 6fbc 17d9 493c bccf 1bbd
000002b0: 2262 76bd 4dc8 b2bd f129 b73d f579 363d
000002c0: 6867 003e f647 72bd 8e1b 36bd 9304 00bd
000002d0: ddc4 d4bc 7e7f 1ebe 98b1 0dbe e56a 8b3d
000002e0: 2e13 44bd 66dd 243c d0f4 0cbc baef 563b
000002f0: da7f 6a3a 76c6 c03c a03f afbd b001 9bbc
00000300: a14c ddbc 0864 cebc f3e3 813d 8292 653d
00000310: 32f8 ec3d 566c 4d3d f44f 853d f7f1 09bd
00000320: f690 0ebb fa5c cfbd 8326 803d 32d5 803d
00000330: 6ddd d53d 87b1 a3bd 0997 0fbe 3a24 8dbc
00000340: 5a4b 9abc b924 1c3d 345a 653d d6fb f03d
00000350: f715 bf3c e192 1bbd 71ce a43b ab9d b13d
00000360: a43b 8e3d a0ba 063c 20f0 813d 16c4 a13c
00000370: 416f 213e 3cdc 4fbd 766e a2bc b624 acbb
00000380: 7202 e33d 3e7d 51bd 4853 b63d 1d50 a93c
00000390: 653c 1a3d 7995 1f3c 70fa 8cbd c367 b1bb
000003a0: d1d8 e9bd 3355 9e3d 6ce7 99bd 6e91 183d
000003b0: 9d00 76bd 8e07 bcba 59f3 583d 61f7 c73d
000003c0: decd 063d 6aca 763d 7887 7c3d 5bd8 1bbd
000003d0: 416a ae3d d132 d9bc ea7d 873c 0470 22bd
000003e0: 3004 6f3d 0713 4ebe 64a4 0d3d 9371 083d
000003f0: 9b6f 093c 439a 393d de05 d9bd 1a64 d23d

bias f4 [64]
-0.16837715 -0.20446709 0.058825158 0.48623124 -0.04855046 0.002985777 0.12444071 -0.11436737
0.08533217 -0.03039843 -0.079521775 -0.03698468 0.05711437 0.41893193 0.13827142 0.3080304
-0.04611518 -0.08811272 -0.084089704 0.28173292 -0.14236416 0.026121423 -0.015167945 0.011263023
0.18078896 -0.23166442 0.10496633 0.16022629 -0.10909397 0.025486404 -0.13886234 -0.088096924
-0.006639709 -0.09805585 -0.081050724 -0.16631779 0.02504858 0.5095246 -0.062501915 0.11082235
0.07100037 -0.043002497 0.107968435 -0.07646616 -0.04646591 0.03726671 -0.040920544 -0.03994696
-0.03148101 0.0138163995 0.26409784 -0.1389633 0.25176 0.00512856 0.48862872 -0.032575097
-0.1527145 0.2592643 -0.11625398 0.02570407 -0.032806173 -0.14902991 -0.08195792 -0.07006652
00000000: 0f6b 2cbe d25f 51be a6f2 703d 4df3 f83e
00000010: d9dc 46bd 07ad 433b c5da fe3d 7139 eabd
00000020: a2c2 ae3d 2106 f9bc 50dc a2bd 3f7d 17bd
00000030: c2f0 693d 3f7e d63e 0697 0d3e 29b6 9d3e
00000040: 45e3 3cbd 7174 b4bd 3937 acbd 4c3f 903e
00000050: e9c7 11be 98fc d53c f982 78bc 8b88 383c
00000060: be20 393e 7039 6dbe 96f8 d63d 5c12 243e
00000070: a96c dfbd ddc8 d03c ee31 0ebe 296c b4bd
00000080: eb91 d9bb 81d1 c8bd ecfd a5bd 364f 2abe
00000090: ae32 cd3c 3470 023f 0101 80bd d4f6 e23d
000000a0: a468 913d 6323 30bd 8e1e dd3d 4a9a 9cbd
000000b0: 0a53 3ebd faa4 183d 4d9c 27bd 6c9f 23bd
000000c0: 3bf2 00bd 2e5e 623c d537 873e 654c 0ebe
000000d0: b0e6 803e 7b0d a83b 8b2d fa3e 776d 05bd
000000e0: 3161 1cbe 4abe 843e 9116 eebd 5891 d23c
000000f0: c45f 06bd 4c9b 18be 8ed9 a7bd 097f 8fbd

weight f4 [64, 1]
-0.1097551 0.5467303 -0.12616964 -0.55654955 -0.63776666 0.4088155 0.78922766 -0.034565117
-0.8226749 -0.13584198 -1.152632 0.47856414 -0.6385952 0.44361702 -0.28947255 1.0576751
-0.645715 -0.76525396 0.054909743 0.6330839 -0.82685065 -0.7888076 1.1123469 1.0930301
0.695951 0.9721292 0.77849936 0.9612992 0.3220181 -0.86072767 -0.70069337 0.48081812
-0.18601337 1.216868 1.203555 1.0048807 -0.7922026 -0.54769206 1.0780177 0.069499
1.1010945 0.66643316 -1.3683034 0.36607376 0.23733605 -0.18175703 1.1713455 -0.8660318
1.0619612 0.9407801 0.27728668 1.1231743 0.15602002 -0.535501 -0.7812979 0.98595643
-0.34875852 0.079008214 -0.50711226 0.74563056 -0.0002752745 -0.20833974 -0.535503 1.2244264
00000000: 48c7 e0bd 84f6 0b3f 9d32 01be 087a 0ebf
00000010: ad44 23bf 4450 d13e d30a 4a3f 2794 0dbd
00000020: d29a 52bf 291a 0bbe 7289 93bf 5c06 f53e
00000030: fa7a 23bf c521 e33e bf35 94be e661 873f
00000040: 944d 25bf afe7 43bf 0ae9 603d c911 223f
00000050: 7cac 53bf 4bef 49bf 6261 8e3f 69e8 8b3f
00000060: d829 323f 76dd 783f bc4b 473f b417 763f
00000070: 8edf a43e a658 5cbf a460 33bf cb2d f63e
00000080: 4a7a 3ebe 55c2 9b3f 170e 9a3f ee9f 803f
00000090: cacd 4abf 8c35 0cbf 7cfc 893f 7e55 8e3d
000000a0: aaf0 8c3f 5d9b 2a3f 9124 afbf 056e bb3e
000000b0: 3908 733e 841e 3abe a6ee 953f 43b4 5dbf
000000c0: 58ee 873f f7d6 703f 85f8 8d3e 2dc4 8f3f
000000d0: b6c3 1f3e 9816 09bf 2403 48bf a467 7c3f
000000e0: 7a90 b2be 0fcf a13d 1cd2 01bf a5e1 3e3f
000000f0: b852 90b9 0357 55be b916 09bf 01ba 9c3f

bias f4 [64]
1.1716473 0.6842289 0.012847152 0.7007442 0.97871244 -0.3481259 -0.87828356 -0.96653104
-0.41979858 -0.5383837 -0.29040614 -0.1319264 -0.59722465 0.5396317 1.1965064 0.961999
0.8402499 0.69409984 -0.965222 0.024099294 1.4149356 0.4516737 0.5231272 0.8301821
0.015667628 -0.5083692 0.91645294 -1.0263436 -0.09784805 0.51954067 0.3803716 -1.1779305
-0.43045756 1.007173 -0.08455728 0.22683842 0.8071247 0.41447073 0.6733875 0.4722054
-0.29150853 -0.24749391 -0.6814088 0.62209463 1.0310582 0.98121744 -0.603144 0.6670495
-0.58511883 -1.165375 0.91926676 0.48300552 -1.0923125 0.47282386 1.2497247 -0.19331811
0.033118136 0.4339415 0.43398643 -0.009860049 0.31282732 -0.48523793 0.5688237 -0.9266717
00000000: 8af8 953f a029 2f3f dc7c 523c f963 333f
00000010: e68c 7a3f 8f3d b2be 31d7 60bf 946e 77bf
00000020: d7ef d6be 84d3 09bf 1db0 94be b717 07be
00000030: b7e3 18bf 4e25 0a3f 1f27 993f 9145 763f
00000040: 9e1a 573f 87b0 313f ca18 77bf e26b c53c
00000050: 9c1c b53f c641 e73e aaeb 053f d086 543f
00000060: 6659 803c 7c24 02bf a99c 6a3f 3a5f 83bf
00000070: 8f64 c8bd 9e00 053f 11c0 c23e 6dc6 96bf
00000080: ef64 dcbe 0beb 803f 5e2c adbd 5548 683e
00000090: b99f 4e3f 8235 d43e 2063 2c3f e8c4 f13e
000000a0: 9b40 95be 0b6f 7dbe cf70 2ebf 9841 1f3f
000000b0: b7f9 833f 1131 7b3f a567 1abf c2c3 2a3f
000000c0: 59ca 15bf 022b 95bf 1155 6b3f 804c f73e
000000d0: e5d0 8bbf f815 f23e fbf6 9f3f 2ff5 45be
000000e0: e2a6 073d 952d de3e 7833 de3e 0b8c 21bc
000000f0: e72a a03e 1b71 f8be 6e9e 113f 5b3a 6dbf

weight f4 [128, 64]
0.022239141 -0.20287263 -0.11184877 0.27103993 -0.1552095 -0.018888738 -0.056008466 -0.06768823
-0.032110907 0.027870541 -0.03824483 -0.04043368 0.0029088382 0.06333065 0.059878778 -0.031843346
0.011948846 0.00535524 0.111304425 -0.14999652 0.032978907 0.016092114 0.036662012 0.022022692
0.24019101 0.04712359 0.19371611 -0.10123035 0.12781473 0.05598186 -0.09979661 -0.07643604
-0.070346184 0.007652827 0.09273087 -0.1070977 0.014804458 0.26273096 0.036229935 0.045194432
0.034525964 0.026676152 0.27566016 0.04409422 0.10782373 -0.053894453 -0.0065912968 -0.10808294
-0.09740922 -0.09701297 -0.042617768 0.016994432 0.15331025 -0.11930923 0.22878323 -0.0019207315
-0.030298267 -0.03973789 0.094083436 0.061080355 0.02142049 -0.080878295 -0.26212975 -0.043468855
-0.00024968202 -0.032635078 -0.08575753 0.13349189 0.15838432 0.00095289154 0.12286582 -0.09799666
0.16055758 -0.16380398 -0.016291404 -0.13245454 -0.20373368 -0.13151029 0.009414674 -0.06888891
-0.0071535553 -0.08795263 0.018585809 0.18105286 0.04295478 0.12235783 0.011351584 0.11944132
0.20100072 0.012165165 0.16280296 -0.088105895 0.039680045 -0.0034409626 -0.032680817 -0.027711269
-0.060997657 0.0063339956 -0.027903406 -0.040583856 0.09836644 -0.14826764 0.060099874 -0.109232485
0.071850896 0.11119254 0.24187401 0.09673358 0.0037117763 0.30796376 -0.0005496136 -0.022374524
0.11306189 0.14192192 -0.23043704 -0.1829174 0.015511199 0.0055655623 -0.1714605 -0.20638658
0.026160643 -0.18155834 0.084629126 0.009140097 -0.07033375 -0.014631419 0.12733704 -0.051038783
0.041205466 -0.03382908 -0.0038877875 0.24514022 -0.31044686 -0.04989942 7.099711e-05 -0.07451806
0.05747514 0.1635431 -0.0068158302 -0.007682427 0.028332105 -0.06327542 -0.005904398 0.21849342
0.13206884 -0.063330516 0.051077027 0.015548519 0.07054824 -0.061280493 -0.10504437 -0.027095202
0.25708514 -0.06297855 0.13389727 -0.013841812 0.05621656 0.011895123 -0.0068016504 0.102059856
-0.013981672 0.000300608 -0.114488415 -0.1638813 0.062047128 0.20104402 0.13357931 -0.11886461
0.13084674 -0.05426436 0.09835914 0.059581816 -0.06642403 -0.06894426 -0.0790194 0.008455315
-0.014658237 0.03155251 0.13749696 0.04262372 0.12263401 -0.31159398 0.12307483 -0.026728088
0.05148908 0.12551993 0.09504623 0.08119112 0.060528792 -0.113193706 -0.31821504 -0.042966276
-0.08988892 -0.13451773 -0.082078695 0.2058359 -0.022736436 -0.11876548 0.1155011 -0.13258292
-0.1267425 0.24368542 -0.04498721 0.16201387 -0.021441909 0.09666817 0.020573225 -0.08630543
-0.04365527 0.038175195 0.22048837 0.1053482 -0.012638988 0.13195881 -0.05429786 0.015166826
0.49067917 -0.03309757 0.2796145 0.09001601 0.22470738 0.07444109 0.05801735 0.20117308
0.075572506 0.036650036 -0.016623989 -0.030688073 0.023276048 -0.042913362 0.0600529 -0.07006055
0.07089244 0.033987995 0.26754984 0.005541472 -0.12906133 -0.2621761 0.10425378 0.009881309
-0.019787628 -0.09559333 0.02967496 0.06393461 0.12537487 -0.05455077 0.07214831 0.17395383
0.11339427 -0.18408935 0.079957254 0.009232045 -0.060403097 -0.07331824 -0.14690469 0.041235406
00000000: dc2e b63c d8bd 4fbe f810 e5bd bfc5 8a3e
00000010: 3def 1ebe 8ebc 9abc 2269 65bd 20a0 8abd
00000020: ba86 03bd c350 e43c 9ca6 1cbd c99d 25bd
00000030: 35a2 3e3b 80b3 813d 7343 753d 2b6e 02bd
00000040: 18c5 433c 027b af3b 93f3 e33d b098 19be
00000050: e414 073d 9cd3 833c e82a 163d ef68 b43c
00000060: a2f4 753e aa04 413d 845d 463e dc51 cfbd
00000070: dde1 023e 3c4d 653d 2a62 ccbd 808a 9cbd
00000080: a911 90bd 91c4 fa3b afe9 bd3d 0a56 dbbd
00000090: 668e 723c ac84 863e d765 143d cc1d 393d
000000a0: 196b 0d3d f287 da3c 5423 8d3e 249c 343d
000000b0: b0d2 dc3d 6ec0 5cbd cefb d7bb 975a ddbd
000000c0: 7c7e c7bd bcae c6bd f88f 2ebd e837 8b3c
000000d0: 5dfd 1c3e 6658 f4bd 2746 6a3e 0ec1 fbba
000000e0: 1234 f8bc 33c4 22bd d1ae c03d 652f 7a3d
000000f0: 067a af3c 85a3 a5bd df35 86be 660c 32bd
00000100: c1e7 82b9 5cac 05bd a5a1 afbd 19b2 083e
00000110: 802f 223e 78cb 793a 13a1 fb3d 79b2 c8bd
00000120: 3569 243e 3bbc 27be 8d75 85bc 2aa2 07be
00000130: 909f 50be a2aa 06be 0140 1a3c a115 8dbd
00000140: 5f68 eabb 8220 b4bd 4441 983c ec65 393e
00000150: 5af1 2f3d be96 fa3d fffb 393c a79d f43d
00000160: 22d3 4d3e 6650 473c d2b5 263e dd70 b4bd
00000170: 8b87 223d c681 61bb 52dc 05bd be02 e3bc
00000180: aed8 79bd 688d cf3b af95 e4bc 423b 26bd
00000190: 5874 c93d 79d3 17be 492b 763d 48b5 dfbd
000001a0: 9026 933d eab8 e33d d2ad 773e 411c c63d
000001b0: 4641 733b 6dad 9d3e f213 10ba c74a b7bc
000001c0: fe8c e73d fb53 113e b0f7 6bbe b34e 3bbe
000001d0: af22 7e3c 525f b63b 5793 2fbe 0157 53be
000001e0: d84e d63c 6eea 39be 0952 ad3d 58c0 153c
000001f0: 240b 90bd 9fb8 6fbc a464 023e 0b0e 51bd
00000200: 10c7 283d 5d90 0abd 40ca 7ebb 0a06 7b3e
00000210: e4f2 9ebe 5663 4cbd 48e4 9438 ed9c 98bd
00000220: 0d6b 6b3d d877 273e 5457 dfbb debc fbbb
00000230: bb18 e83c 8b96 81bd ae79 c1bb bdbc 5f3e
00000240: 0e3d 073e 6eb3 81bd 2536 513d 37bf 7e3c
00000250: 987b 903d 4101 7bbd 8121 d7bd c2f6 ddbc
00000260: aaa0 833e e6fa 80bd 5e1c 093e c4c8 62bc
00000270: 5643 663d c3e3 423c 61e0 debb c204 d13d
00000280: 6213 65bc ec9a 9d39 e778 eabd 80d0 27be
00000290: 2125 7e3d 7cde 4d3e 04c9 083e 4a6f f3bd
000002a0: b0fc 053e 4e44 5ebd 8470 c93d 100c 743d
000002b0: 5209 88bd a632 8dbd ecd4 a1bd 2988 0a3c
000002c0: 1a29 70bc 343d 013d 01cc 0c3e 3696 2e3d
000002d0: 8a27 fb3d 3f89 9fbe a80e fc3d ddf4 dabc
000002e0: 37e6 523d 4c88 003e 99a7 c23d 8847 a63d
000002f0: 0aed 773d 1ad2 e7bd 15ed a2be 68fd 2fbd
00000300: af17 b8bd 04bf 09be e018 a8bd a5c6 523e
00000310: c341 babc 513b f3bd d78b ec3d d1c3 07be
00000320: c9c8 01be ac88 793e 8244 38bd f7e6 253e
00000330: f1a6 afbc f6f9 c53d 2e89 a83c e7c0 b0bd
00000340: decf 32bd 985d 1c3d b4c7 613e ccc0 d73d
00000350: c213 4fbc 3620 073e 6f67 5ebd 477e 783c
00000360: 4d3a fb3e 5191 07bd a229 8f3e 505a b83d
00000370: b119 663e 9274 983d 9aa3 6d3d 5100 4e3e
00000380: c2c5 9a3d 591e 163d 082f 88bc 8e65 fbbc
00000390: 69ad be3c ecc5 2fbd 08fa 753d e87b 8fbd
000003a0: 0e30 913d ff36 0b3d 4bfc 883e 3d95 b53b
000003b0: a728 04be f23b 86be 0183 d53d 37e5 213c
000003c0: aa19 a2bc 70c6 c3bd e718 f33c 26f0 823d
000003d0: 4562 003e a170 5fbd 7ec2 933d f420 323e
000003e0: 413b e83d eb81 3cbe a1c0 a33d 0142 173c
000003f0: 3d69 77bd e027 96bd 2f6e 16be 75e6 283d

bias f4 [128]
0.025424615 -0.019329805 0.06450741 0.11399823 0.031874802 0.03986162 0.089264736 -0.051464833
0.073795386 0.03870783 0.002746005 0.09974184 -0.10893532 -0.060447384 0.13063158 -0.025580125
-0.053561803 -0.08798974 -0.108814605 0.044245925 -0.023957355 -0.06613691 0.024116324 0.08469715
0.051524192 -0.082056634 0.016448688 -0.099372566 0.074572235 -0.050642896 0.10633321 -0.108312376
0.10195492 -0.09887095 -0.094193086 0.077952415 -0.11494739 0.00043676794 -0.037330274 0.07282027
-0.04028658 -0.07037313 0.049070667 -0.0023568177 -0.050416745 -0.012827443 -0.11573139 -0.019703848
-0.08702421 -0.049423248 0.1041858 0.0076376107 0.02943688 -0.08557973 -0.0140529545 -0.0643776
-0.13159962 0.06239766 -0.055957943 0.09663189 -0.088699766 0.0038021838 0.035684988 0.004233089
0.023984823 -0.00034053472 0.05953677 -0.020143699 0.059055593 -0.026524387 -0.055504255 0.02708314
-0.022637552 -0.12068372 0.09465902 -0.11746275 0.10494292 -0.08698965 -0.11960934 0.08799446
0.0545427 0.074264914 -0.047071423 -0.015108598 0.010052649 0.07830256 0.0314021 -0.11413512
-0.02562173 0.11881066 0.00058911764 0.035919905 0.054983776 -0.012386435 0.08199104 -0.04685029
0.017456576 0.0073162527 0.09648569 0.0038648718 -0.07816141 -0.033685885 -0.0002061888 -0.022152876
-0.026730819 -0.014814272 0.074619606 -0.12166196 0.059265308 -0.09195336 0.12801951 -0.0016733749
0.002901707 -0.09184156 -0.018662656 0.07811497 0.04967241 -0.080557674 0.09583623 -0.01281132
0.11389212 0.0036338074 -0.05485929 0.023312526 0.08409214 -0.12421508 -0.0792054 0.084672585
00000000: 4847 d03c 8a59 9ebc 761c 843d e777 e93d
00000010: 278f 023d f045 233d 6ed0 b63d cacc 52bd
00000020: 0922 973d 1a8c 1e3d 52f6 333b 7345 cc3d
00000030: 7b19 dfbd ad97 77bd 49c4 053e 698d d1bc
00000040: 9f63 5bbd f733 b4bd 31da debd 373b 353d
00000050: 3742 c4bc ca72 87bd 998f c53c b375 ad3d
00000060: 080b 533d 4f0d a8bd 66bf 863c d883 cbbd
00000070: 54b9 983d ed6e 4fbd 3ac5 d93d e1d2 ddbd
00000080: becd d03d da7c cabd 4ee8 c0bd 84a5 9f3d
00000090: 8a69 ebbd 00fe e439 a1e7 18bd cb22 953d
000000a0: 8a03 25bd ca1f 90bd 53fe 483d d774 1abb
000000b0: ca81 4ebd 322a 52bc 9404 edbd f769 a1bc
000000c0: c039 b2bd 0870 4abd 5d5f d53d ec44 fa3b
000000d0: 9d25 f13c 6d44 afbd 5d3e 66bc 67d8 83bd
000000e0: 0dc2 06be b094 7f3d 2834 65bd f1e6 c53d
000000f0: 39a8 b5bd 0f2e 793b 6c2a 123d b9b5 8a3b
00000100: d27b c43c cc89 b2b9 d4dc 733d 6604 a5bc
00000110: 47e4 713d ac49 d9bc 6e58 63bd 76dd dd3c
00000120: 6372 b9bc 0729 f7bd 97dc c13d 4f90 f0bd
00000130: 50ec d63d a127 b2bd bef5 f4bd 7036 b43d
00000140: 2b68 5f3d 3418 983d f7cd 40bd 0e8a 77bc
00000150: deb3 243c 185d a03d 7d9f 003d acbf e9bd
00000160: aae4 d1bc 0153 f33d 046f 1a3a c020 133d
00000170: ab36 613d 79f0 4abc ebea a73d 17e6 3fbd
00000180: 1801 8f3c 2dbd ef3b 4a9a c53d ca49 7d3b
00000190: 1713 a0bd 36fa 09bd 6234 58b9 f379 b5bc
000001a0: 97fa dabc 8fb7 72bc 2ad2 983d e829 f9bd
000001b0: 2ec0 723d 0b52 bcbd 8c17 033e 2555 dbba
000001c0: 912a 3e3b 6e17 bcbd 6de2 98bc befa 9f3d
000001d0: 4c75 4b3d 6cfb a4bd c945 c43d 92e6 51bc
000001e0: 4640 e93d 2c25 6e3b 23b4 60bd e9f9 be3c
000001f0: 8038 ac3d 7a64 febd 7136 a2bd d268 ad3d

weight f4 [128]
1.4384552 1.3155175 1.2757454 1.3332058 1.2635181 1.3054864 1.4892759 1.2805558
1.2315547 1.3149703 1.1707016 1.3407966 1.3076488 1.4679728 1.2924571 1.2331454
1.4049737 1.2115773 1.2860569 1.2915847 1.2152728 1.3567312 1.2565676 1.3006887
1.3768048 1.260031 1.5566628 1.3625789 1.4542679 1.257636 1.3834605 1.4209464
1.4003848 1.2151821 1.2830117 1.2262316 1.3226678 1.4159316 1.4006981 1.1963353
1.4395664 1.4316007 1.2781051 1.2871151 1.288259 1.4645529 1.3618929 1.2557259
1.3235564 1.3940277 1.4148715 1.2826508 1.3463244 1.2818336 1.2215621 1.2875372
1.3142698 1.271084 1.1829756 1.369538 1.3442401 1.2575603 1.2695302 1.2612783
1.2240449 1.3940076 1.3038485 1.3873466 1.3408145 1.1971986 1.3276045 1.2829784
1.2701225 1.299249 1.348685 1.3079529 1.268357 1.3843007 1.401198 1.3100816
1.2993003 1.3121991 1.3826054 1.3186877 1.1568671 1.2846817 1.4267519 1.3114008
1.282424 1.2832922 1.2470263 1.4610444 1.24933 1.4485654 1.2664235 1.2669048
1.2853259 1.2771125 1.2705914 1.3204969 1.3325711 1.3479029 1.3750176 1.4768335
1.3538678 1.2842402 1.3222888 1.2544703 1.2840976 1.2479593 1.2719927 1.2709416
1.5428492 1.274941 1.2273898 1.4235079 1.3219593 1.3182783 1.374246 1.3276738
1.2521297 1.322152 1.3302038 1.2936256 1.2786471 1.2964494 1.466644 1.5080453
00000000: 4d1f b83f e162 a83f a04b a33f 7da6 aa3f
00000010: f6ba a13f 2e1a a73f 98a0 be3f 41e9 a33f
00000020: 96a3 9d3f f250 a83f 8dd9 953f 399f ab3f
00000030: 0961 a73f 88e6 bb3f 3c6f a53f b5d7 9d3f
00000040: 2ed6 b33f f714 9b3f 839d a43f a652 a53f
00000050: 0f8e 9b3f 5ea9 ad3f 35d7 a03f f87c a63f
00000060: 243b b03f b248 a13f ba40 c73f fc68 ae3f
00000070: 7325 ba3f 37fa a03f 3c15 b13f 92e1 b53f
00000080: cf3f b33f 168b 9b3f ba39 a43f 28f5 9c3f
00000090: 2e4d a93f 3f3d b53f 134a b33f 8421 993f
000000a0: b643 b83f b13e b73f f398 a33f 30c0 a43f
000000b0: ace5 a43f 7876 bb3f 8252 ae3f a0bb a03f
000000c0: 4c6a a93f 806f b23f 821a b53f e72d a43f
000000d0: 5c54 ac3f 2013 a43f 265c 9c3f 05ce a43f
000000e0: fe39 a83f e1b2 a23f bf6b 973f 054d af3f
000000f0: 0f10 ac3f bcf7 a03f f77f a23f 9171 a13f
00000100: 81ad 9c3f d76e b23f 82e4 a63f 9394 b13f
00000110: cf9f ab3f ce3d 993f f2ee a93f a338 a43f
00000120: 6093 a23f cb4d a63f b6a1 ac3f 006b a73f
00000130: 8659 a23f c430 b13f 755a b33f c1b0 a73f
00000140: 794f a63f 24f6 a73f 37f9 b03f c2ca a83f
00000150: 3914 943f 7370 a43f ce9f b63f fbdb a73f
00000160: 7826 a43f eb42 a43f 8f9e 9f3f 8103 bb3f
00000170: 0cea 9f3f 976a b93f 2a1a a23f f029 a23f
00000180: 8f85 a43f 6c78 a33f bda2 a23f 0b06 a93f
00000190: b191 aa3f 1588 ac3f 9400 b03f e108 bd3f
000001a0: 8a4b ad3f fc61 a43f c240 a93f 7c92 a03f
000001b0: 4f5d a43f 21bd 9f3f a8d0 a23f 37ae a23f
000001c0: 157c c53f 4431 a33f 1c1b 9d3f 8235 b63f
000001d0: f635 a93f 58bd a83f 4be7 af3f 37f1 a93f
000001e0: c945 a03f 473c a93f 1e44 aa3f 8695 a53f
000001f0: b5aa a33f 0ef2 a53f feba bb3f a107 c13f

bias f4 [128]
0.09151273 0.0020190417 0.0655674 0.057700854 0.15890422 0.058664232 0.23762903 0.19902864
0.12739575 0.029338824 0.11345494 0.14240922 0.05151952 0.24468462 0.10182172 0.04628621
-0.47653088 -0.015730215 0.11987985 0.039005782 0.037904367 0.062464923 0.044441447 0.13133873
0.118208006 0.022056524 0.24785481 0.18300442 0.18035574 -0.012846239 0.17367707 -0.14826246
-0.16813374 0.034938958 0.034719944 0.047846273 0.21447937 0.079711385 -0.19311333 0.096097395
0.20054986 -0.44286892 -0.04763685 0.033912614 0.058741238 0.15363444 0.056041535 0.16216128
-0.12681337 0.20342617 0.14994426 -0.06843436 0.11399723 0.14113371 0.10314194 0.070910804
0.13838926 0.007220552 0.073787235 0.13022736 -0.28038558 0.028056636 0.054279506 -0.06598735
0.10021625 -0.25023046 0.12284774 0.21627013 0.10404121 0.035399638 0.10769316 0.1270167
0.08985535 0.17472108 0.083234034 0.051867206 -0.16763255 0.117649734 -0.26022378 0.09786222
-0.10166996 -0.015997613 0.13272156 0.15141204 -0.0030418143 -0.09816226 0.091131136 0.10334827
0.08533418 -0.045331277 0.09424486 0.19634837 0.01799032 -0.0048183016 0.1228194 0.0486444
0.023567146 -0.03703846 -0.17256993 -0.12636898 0.04854188 0.07969082 0.14280519 -0.011513038
0.14746885 0.10760027 -0.27306032 0.074545585 0.05574026 0.11505837 0.11391865 0.053166974
0.19707713 0.1135566 0.10796966 -0.3353462 0.17639463 0.10843297 0.14039141 0.1595373
0.14816245 0.17606871 -0.048264347 0.09054403 0.13782877 0.13987365 0.16479063 0.06531187
00000000: 076b bb3d e651 043b 3348 863d bb57 6c3d
00000010: cab7 223e e849 703d 0655 733e 2ace 4b3e
00000020: 0874 023e f957 f03c 105b e83d b9d3 113e
00000030: 2206 533d 9b8e 7a3e e887 d03d 9c96 3d3d
00000040: dbfb f3be a7dc 80bc 9183 f53d 87c4 1f3d
00000050: 9c41 1b3d 38db 7f3d 3c08 363d a97d 063e
00000060: 0a17 f23d e2af b43c a7cd 7d3e 8365 3b3e
00000070: 2daf 383e 0879 52bc 67d8 313e 1dd2 17be
00000080: 402b 2cbe 271c 0f3d 8036 0e3d 74fa 433d
00000090: 7ba0 5b3e b93f a33d 80bf 45be b6ce c43d
000000a0: f15c 4d3e b7bf e2be dc1e 43bd f4e7 0a3d
000000b0: a79a 703d 5952 1d3e cf8b 653d 9b0d 263e
000000c0: 5ddb 01be f34e 503e fd8a 193e 5027 8cbd
000000d0: 6177 e93d 5b85 103e 153c d33d af39 913d
000000e0: eab5 0d3e 619a ec3b c31d 973d 525a 053e
000000f0: b38e 8fbe 08d7 e53c 3054 5e3d 6024 87bd
00000100: 2d3e cd3d 351e 80be 9997 fb3d eb75 5d3e
00000110: 8f13 d53d 36ff 103d 3b8e dc3d aa10 023e
00000120: 1506 b83d 15ea 323e 9b76 aa3d b572 543d
00000130: dea7 2bbe 58f2 f03d 0d3c 85be fd6b c83d
00000140: 5738 d0bd 6d0d 83bc 29e8 073e c20b 1b3e
00000150: 2d59 47bb 4c09 c9bd f6a2 ba3d 42a8 d33d
00000160: b0c3 ae3d 4aad 39bd 7303 c13d 8c0f 493e
00000170: 7060 933c d8e2 9dbb bd88 fb3d 5a3f 473d
00000180: e30f c13c a4b5 17bd 2cb6 30be df66 01be
00000190: dad3 463d f134 a33d 863b 123e 2ea1 3cbc
000001a0: 1302 173e 885d dc3d 90ce 8bbe 5bab 983d
000001b0: e64f 643d b9a3 eb3d 2e4e e93d 9dc5 593d
000001c0: 96ce 493e 5d90 e83d 321f dd3d 7fb2 abbe
000001d0: cba0 343e 1b12 de3d c4c2 0f3e bf5d 233e
000001e0: e6b7 173e 5b4b 343e d6b0 45bd 266f b93d
000001f0: fc22 0d3e 0a3b 0f3e e0be 283e 3bc2 853d
