src/model_server_60.pt (torch, 162360 bytes, 22 tensors)

weight f4 [128, 64]
000000 41 74 0e be b7 37 8d bc ad 80 82 be a5 97 84 be
       -0.13911535 -0.017238481 -0.25488797 -0.25896946
000010 02 c4 63 be c9 2d be bd f4 56 11 bd 74 dc e5 bc
       -0.2224274 -0.092860766 -0.035483316 -0.028059222
000020 ae a6 fd bd 88 a9 d6 bd 3a 05 01 be 38 4e 0d be
       -0.12385307 -0.10481554 -0.1259965 -0.1379937
000030 5f 60 72 be 21 a9 32 be 0e 3d 49 be 04 ef 0b 3e
       -0.23669575 -0.1744733 -0.19652197 0.13665396
000040 62 c0 05 be ed ee 8a bd 79 00 56 be b4 15 22 be
       -0.1306167 -0.06783853 -0.20898618 -0.15828592
000050 d1 b2 e6 bd 48 0d 80 bd 98 ad aa 3d 44 7f 8b 3e
       -0.11264575 -0.06252533 0.08333892 0.27245533
000060 ca c5 88 bd dc 71 fa 3b 27 9a 8d 3d 79 d4 82 bd
       -0.0667835 0.0076429676 0.06914168 -0.06388182
000070 b9 8e 4c be 3e 35 29 be c1 3f 4e be 21 8d 73 3c
       -0.1997632 -0.16524217 -0.20141508 0.014865191
000080 4e 77 5a be 3a 5c 19 3e 7a 22 cb 3d 02 e5 86 bd
       -0.21334574 0.14976588 0.09918685 -0.065866485
000090 7b 6a 5d be ef 88 2a bd 2e 76 01 3e 3c ff 89 bd
       -0.2162265 -0.041634496 0.12642738 -0.06738135
0000a0 36 11 c3 3d bd f2 0f be d3 ae 17 bd 7b 6a 65 be
       0.09524767 -0.14057441 -0.03703196 -0.224039
0000b0 44 48 50 be 6d f1 54 be c0 3e 31 3e 9b 50 95 bd
       -0.20340067 -0.20795222 0.17309093 -0.07290765
0000c0 a1 37 dc bc 75 66 0b 3d f6 62 ac bc b5 37 84 3e
       -0.026881995 0.034033258 -0.021043282 0.2582375
0000d0 8b 2d 98 bd 3f 64 0b be 3d b6 b5 bd fd e3 25 bd
       -0.07430562 -0.1361246 -0.0887265 -0.04050063
0000e0 4c 60 fa bd 1a 54 5f be 11 4b 6b be aa fa fb bd
       -0.122253984 -0.21809426 -0.22977854 -0.1230367
0000f0 96 96 b2 bd 0b da af bd 47 74 6e be 97 93 6d 3e
       -0.08720128 -0.0858651 -0.23286544 0.23200832
000100 82 c3 e5 3c 7f d6 85 bd 29 6e 2a be 5a 15 36 be
       0.028047327 -0.065350525 -0.16643585 -0.17781582
000110 20 b4 08 be cc 47 d5 3c a8 ee 09 be a6 99 5c be
       -0.13349962 0.026035212 -0.13469946 -0.21542987
000120 1c 10 83 3d 39 ef 2f be 10 f1 32 3e 7a 2d c1 3c
       0.06399557 -0.171811 0.1747477 0.023581255
000130 2b c5 5f 3b 52 9f 28 be 39 bc 5a bd 60 16 b4 bd
       0.003414462 -0.16467026 -0.05340216 -0.0879333
000140 7a 0e ab be b0 20 fc bb 72 bb 4a bd 9b 97 4e be
       -0.33409482 -0.0076943263 -0.049495168 -0.2017502
000150 82 75 10 be 61 6a 4a be 8e 4b 18 bd f7 26 72 bd
       -0.14107326 -0.19767143 -0.03718143 -0.05911919
000160 d1 04 fd b8 6d ba e0 bd a4 17 95 3a 3f 50 30 3d
       -0.00012064877 -0.10973058 0.0011374843 0.04304528
000170 8b 04 91 bc a1 2b 27 bd f0 b6 88 be 1c c1 fc bd
       -0.017702362 -0.040813092 -0.2670207 -0.1234152
000180 f7 7a 63 be b8 2b d5 3c 9f c1 d9 bd e1 4c c3 bd
       -0.22214876 0.026021823 -0.106326334 -0.09536148
000190 71 3a 50 bb 2a bd dc bd d9 f6 8a bd 7b a2 f3 bd
       -0.0031773115 -0.10778268 -0.06785364 -0.11896225
0001a0 04 e3 09 be 9b f8 69 bd 56 6e 09 3d 21 e6 3a be
       -0.13465506 -0.057121854 0.03355249 -0.1825185
0001b0 8d 9f 0d bd 81 01 a8 bd bc 39 88 bd db d8 63 bd
       -0.034575988 -0.08203412 -0.06651637 -0.05562673
0001c0 f5 0d c3 bd e6 31 b5 3d 35 69 d1 3c db 78 ec bd
       -0.095241465 0.08847408 0.025562862 -0.11546489
0001d0 bc 8e 26 be 57 53 6a be 98 97 2f be 87 e4 d5 3b
       -0.16265386 -0.22883354 -0.17147672 0.0065274867
0001e0 f0 d9 26 be 09 af 8b bd c1 cf 87 be 36 9b c4 3b
       -0.16294074 -0.06820495 -0.2652569 0.005999948
0001f0 77 a1 95 be 9b 37 a5 be 82 ed 4f be 71 04 8c bd
       -0.2922475 -0.32268986 -0.20305446 -0.06836785
000200 c5 e6 23 be a0 2d 55 be cf 64 df bd b6 2b 1e 3c
       -0.16006 -0.20818186 -0.109078996 0.009653976
000210 68 d9 d8 bd ac dc 89 bd 9e 19 c8 3d a0 3f 58 bc
       -0.10588342 -0.06731543 0.09770511 -0.013198763
000220 5d c9 b9 3d 61 93 20 3c 91 35 07 3e 1f 8f 9a 3c
       0.0907161 0.009800763 0.13204028 0.018867074
000230 99 0f 55 3e 98 b1 a8 bc 6d 08 a7 3c 7b 35 42 bd
       0.20806731 -0.020592496 0.02038976 -0.047414284
000240 37 60 00 be c8 6f e5 bc f8 b1 8d 3d fd 08 c4 bd
       -0.12536703 -0.028007403 0.069187105 -0.09572027
000250 62 bc 68 bd b6 2e 98 bd ad 31 2e be d2 7d 01 be
       -0.05682028 -0.074307844 -0.17011137 -0.12645653
000260 0c 57 f7 bd d3 b8 b5 38 72 ca 6c bd 80 c2 f1 bd
       -0.1207715 8.665179e-05 -0.057810254 -0.11804676
000270 dc 62 53 bc e9 59 5a bd bc 4d 62 3b bd 09 84 bd
       -0.012901988 -0.0533084 0.0034531197 -0.0644717
000280 2e f7 ae bc fb 70 bf bc 0c 8b c2 bd ff 0c 26 be
       -0.021358099 -0.023369303 -0.09499177 -0.16215895
000290 52 a6 2d 3c 4d 33 43 3a 09 1d e5 bd 88 d2 47 bd
       0.010598736 0.0007446304 -0.11187179 -0.048784763
0002a0 98 ae eb bd 99 97 c4 bd 93 86 79 3e 3b 5f 17 be
       -0.115079105 -0.095992275 0.24367742 -0.14782421
0002b0 82 ec 83 3c a6 7b 23 bd c1 53 ee bd c7 a2 de 3d
       0.016103987 -0.039912842 -0.116370685 0.10870891
0002c0 49 4c 10 bd c5 d7 6e bc 78 4b 02 bb 3b a7 00 be
       -0.035229 -0.014577811 -0.0019881409 -0.12563793
0002d0 c0 0e ac ba 14 34 f2 bc 9a 1b 98 3d ba 59 51 bc
       -0.0013126954 -0.029565848 0.074271396 -0.01277774
0002e0 d1 58 7e 3d 47 dd 79 bd b5 73 97 bd 22 a2 f3 bd
       0.06209642 -0.061002042 -0.07395116 -0.11896159
0002f0 80 a7 29 be 45 55 b2 3d 92 e0 dd 3d 8f 67 14 3e
       -0.16567802 0.0870767 0.10833849 0.1449263
000300 3d f9 a6 bd 2d 54 8c 3d e2 d5 a2 bd d8 94 f6 bd
       -0.08153007 0.06851993 -0.07950951 -0.120401084
000310 8e d4 01 be ab 7d 84 3d 5a 49 e8 bc 87 79 f2 3b
       -0.1267874 0.06469282 -0.02835529 0.007399741
000320 f0 bd 6e bd ae 58 5b 3d 14 98 24 be 16 44 4c bd
       -0.058286607 0.05355137 -0.16073638 -0.04986962
000330 f7 63 08 be 78 0e 10 3e b1 87 5b bd a6 fd 48 3e
       -0.13319384 0.1406802 -0.053596202 0.19628009
000340 55 ce 95 bc 99 cc 58 bd 26 88 7f 3c 92 9e c1 3c
       -0.018286863 -0.052929495 0.015596425 0.023635183
000350 f6 dc 62 bd 8e 5e c3 bd bc 80 a6 3d 51 7b e3 3d
       -0.055386506 -0.09539519 0.08130023 0.11107505
000360 31 7c 50 bd 85 cf 0e bc 80 8d 26 3e 99 e2 71 bd
       -0.05089969 -0.008716469 0.16264915 -0.05905399
000370 d5 af 1a 3c cc 84 70 3d fd 0c 8e bc c0 80 72 3d
       0.009441336 0.058720395 -0.017340178 0.059204817
000380 90 bf ed bd 97 db 19 3e b4 24 8d bc d9 11 fd 3c
       -0.11608803 0.15025173 -0.017229415 0.0308923
000390 48 cb e0 bd 13 a2 90 bd 63 ed 92 3d dd 98 ea 3d
       -0.10976273 -0.07062163 0.07174184 0.114549376
0003a0 c7 50 91 3d e4 f7 1e 3e 4c c0 b8 37 37 5e 7b bd
       0.07095485 0.1552425 2.2024054e-05 -0.061369147
0003b0 9a 67 97 3d bb c7 b5 bd 9e 39 01 3c 28 85 04 bd
       0.07392807 -0.08875986 0.007887272 -0.03235355
0003c0 b2 dc b7 3d 96 1c 14 3e 1e 55 20 bc c9 b8 9d 3d
       0.08977641 0.1446403 -0.0097859185 0.077012606
0003d0 77 30 9f 3d d5 41 31 be 71 3b c5 3c 94 49 28 bd
       0.07772916 -0.17310269 0.024076195 -0.041085795
0003e0 f4 7f 19 bd d2 7a 21 bc 54 53 b2 bd ff b9 72 3d
       -0.03747554 -0.009855943 -0.087073 0.05925941
0003f0 6b fd df 3d f8 b1 82 bd a8 53 0d be 84 b9 90 3c
       0.109370075 -0.06381601 -0.13801444 0.017666586

bias f4 [128]
000000 9a 5d 87 bb da 58 63 3d 23 f0 8d 3c 19 b2 a1 bd
       -0.004131031 0.055504657 0.01732642 -0.078952976
000010 a4 84 21 bd 3e 5b a8 bd 08 e9 f1 3c ac 7a bf 3d
       -0.039433137 -0.08220528 0.029530063 0.0934957
000020 a1 4c 93 bd ec 90 2b 3d b4 98 c5 bd f8 da 52 3d
       -0.0719235 0.041886255 -0.096482664 0.051478356
000030 23 70 ef bd 12 b4 49 bd ad 98 dd ba fc 8b ac bc
       -0.1169131 -0.049243994 -0.0016906463 -0.021062844
000040 b8 8c 8f 3d 5c 53 4b bd b2 b0 29 3d 8b 48 61 3d
       0.07009262 -0.049640045 0.041428275 0.055000823
000050 63 34 0c 3d a8 4c f8 bd 94 2e 8d bd 3a 39 fb bc
       0.034229647 -0.12123996 -0.0689365 -0.030666936
000060 e1 cf 00 bb 60 5f 46 3d c0 50 b4 3d ef 70 d4 3c
       -0.0019655155 0.0484308 0.08804464 0.025932757
000070 58 12 af bd e3 12 fe bd 37 7c e4 3d b3 93 a4 39
       -0.08548421 -0.12405946 0.111565046 0.00031390562
000080 7c 1d e4 bd 53 76 0c bd 38 ef 43 3d 4c 06 7a bb
       -0.11138436 -0.03429253 0.04783556 -0.0038150726
000090 2c f8 a7 3d 23 a4 b1 bc 9c e1 78 3c 5a 0c f1 3d
       0.08201632 -0.021684712 0.015190508 0.11769934
0000a0 4c fd e1 bd 50 a6 52 3c b1 d4 cf bd 7a 90 ac bd
       -0.11034641 0.012857035 -0.101479895 -0.08425994
0000b0 d9 d8 ef bd d2 63 7b 3d 99 f8 c7 bc ec 36 3c 3d
       -0.11711282 0.061374493 -0.024410533 0.045950815
0000c0 11 5a 62 3c 05 7f 27 3d 62 87 d6 bd 50 2e 35 bd
       0.013815419 0.04089262 -0.10475041 -0.04423362
0000d0 3a 58 0f bd d5 b2 b9 bd 8f 60 5a 3d 53 8c 91 3d
       -0.03499625 -0.09067313 0.05331474 0.07106843
0000e0 4d 8b 39 bd c6 b1 ae bd 4b ff 85 bd 9c a9 ee bd
       -0.045298863 -0.08530001 -0.06542834 -0.11653444
0000f0 5d 53 a6 bd c6 e1 0b bd 2d 0b aa 3c b0 da 76 bd
       -0.08121369 -0.03415086 0.020757282 -0.06026715
000100 5d de d2 bd 58 1c 81 3d 1e 98 cc 3d b9 ec d4 3b
       -0.10296319 0.06304234 0.099899516 0.006497946
000110 bf 60 91 bc ca 80 64 bd c2 11 27 3d ca b3 1b 3c
       -0.017746327 -0.055786885 0.04078842 0.009503314
000120 20 57 6b bd cd 3f af 3d bc cd 96 3d 91 7c bd 3d
       -0.057456136 0.08557091 0.073634595 0.09252275
000130 1e ee b0 3d 3a c4 97 bd dc d1 e9 3d 9b 5e 0f bb
       0.08639167 -0.07410474 0.114169806 -0.0021876458
000140 79 97 eb bd b0 81 a2 3d 20 e7 a3 bd 1c c2 70 bd
       -0.115035005 0.07934892 -0.08003068 -0.058778867
000150 4e e3 c8 3c d3 76 b4 3d 3c 2b a1 3c 04 68 da bd
       0.02452245 0.088117264 0.019673936 -0.10664371
000160 4f 85 ae bd 47 ab 3b 3d 77 ec 0c bd 74 43 0d 3d
       -0.0852152 0.04581764 -0.034405198 0.034488156
000170 98 c8 de 3d 7b 09 a6 bd c8 77 dd bd 4a fb 2e bd
       0.10878104 -0.08107277 -0.10813862 -0.042720117
000180 ea b0 1a bc 2a 3e 2c bd d1 cd f9 3d a1 81 99 bd
       -0.009441594 -0.04205147 0.121974595 -0.07495428
000190 5d 49 95 3d e3 f8 46 3d 45 39 ec 3d 2c 6a f6 bd
       0.072893836 0.0485772 0.11534361 -0.120319694
0001a0 96 e0 bb 3d 60 a7 21 bd 68 96 35 bd bf 7c 8b 3b
       0.09173696 -0.039466262 -0.04433289 0.0042568143
0001b0 45 02 ad 3d 58 4b 83 3d 53 d5 94 bd 8d c9 f3 3c
       0.084476985 0.06410855 -0.07267251 0.029759193
0001c0 7e e6 ad bb ab 5e 26 3d 3c 37 31 ba 67 13 fd bc
       -0.005307018 0.040617626 -0.0006760245 -0.03089304
0001d0 48 3d 6d 3d 86 3b da 3d fd bb 88 3d 22 05 28 bd
       0.05791977 0.106558844 0.06676481 -0.04102052
0001e0 d3 e0 c7 3a 70 98 c4 3c 4e 53 94 bd 99 65 d9 3d
       0.0015249498 0.02399847 -0.072424516 0.10615081
0001f0 41 f2 86 3d d6 45 60 3d 04 2c ed 3d 79 04 85 bc
       0.06589175 0.0547541 0.11580661 -0.016237484

weight f4 [128]
000000 74 7a 50 3f 6f c7 36 3f 5a 1e 5c 3f f1 8f 27 3f
       0.8143685 0.7139806 0.8598381 0.6545401
000010 4e ea 35 3f cc 6b 4a 3f e4 5f 64 3f 71 98 06 3f
       0.71060646 0.79070735 0.8920882 0.5257636
000020 ff c8 82 3f 69 3d 58 3f ee 5a 11 3f 4a 02 2e 3f
       1.0217589 0.84468704 0.5677937 0.6797224
000030 37 54 6b 3f d1 be 66 3f f2 49 51 3f 95 e3 37 3f
       0.91925377 0.9013491 0.81753457 0.7183164
000040 1d 03 56 3f ea 21 6c 3f f8 fa 46 3f 8a cd 77 3f
       0.835985 0.9223925 0.777267 0.96798
000050 18 84 50 3f ea 8a 3b 3f a1 49 7a 3f 26 76 7f 3f
       0.8145156 0.7325884 0.977686 0.99789655
000060 f0 f6 65 3f aa da 5f 3f 97 aa 54 3f bf ac 79 3f
       0.8982992 0.8744303 0.830728 0.97529215
000070 ea e0 ae 3e 23 e7 83 3f 73 04 43 3f 44 04 35 3f
       0.3415597 1.0304912 0.76178664 0.70709634
000080 34 02 59 3f e9 c3 62 3f 7b 07 4a 3f 8b 4a 81 3f
       0.84768987 0.88580185 0.78917664 1.0100874
000090 b5 30 42 3f 38 40 52 3f f8 6b 07 3f cc 06 6f 3f
       0.7585557 0.8212924 0.5289912 0.93369746
0000a0 45 f3 7f 3f 87 82 4b 3f 11 28 1d 3f 8c ca 25 3f
       0.99980575 0.79496044 0.6138926 0.64762187
0000b0 2e 67 39 3f 88 07 27 3f 42 ff 4a 3f 70 eb 84 3f
       0.72423065 0.65245867 0.7929574 1.038435
0000c0 fb 2e 66 3f 3e 61 73 3f df 54 33 3f 7e a0 55 3f
       0.89915437 0.95070255 0.7005138 0.83448017
0000d0 c9 11 7b 3f e0 af 4f 3f 79 c6 41 3f 31 1d 44 3f
       0.98074013 0.8112774 0.7569347 0.7660704
0000e0 e5 a0 30 3f 34 05 38 3f 4c e1 43 3f 56 b7 79 3f
       0.68995506 0.7188294 0.7651565 0.97545373
0000f0 a7 1b 4a 3f a4 ad 22 3f c9 48 69 3f 2b 29 61 3f
       0.78948444 0.63546205 0.91126686 0.8795344
000100 7c 9e 3f 3f 7d 50 5f 3f 39 7e 42 3f d1 f3 76 3f
       0.748512 0.8723219 0.7597385 0.96465784
000110 35 02 1e 3f 18 ec 6e 3f d3 74 6f 3f 12 a6 6a 3f
       0.6172212 0.93329 0.93537635 0.91659653
000120 d1 33 33 3f b2 7a 61 3f 81 17 74 3f 8a 47 6b 3f
       0.7000094 0.88077843 0.95348364 0.91906035
000130 d1 e8 49 3f c4 59 25 3f 8a 0d 95 3f 5e 15 4e 3f
       0.78870875 0.64590096 1.1644757 0.80501354
000140 40 71 32 3f 9b 6b 31 3f e2 cb 31 3f a0 42 2f 3f
       0.69704056 0.6930482 0.69451725 0.68461037
000150 64 68 68 3f 0f 66 53 3f 63 b6 63 3f 64 c1 46 3f
       0.9078429 0.82577604 0.88950175 0.7763884
000160 13 ec 5c 3f 78 df 74 3f 90 6f 46 3f b7 d0 81 3f
       0.8629772 0.95653486 0.7751398 1.014182
000170 66 a2 08 3f 22 d4 5b 3f e1 8d 61 3f e7 f5 4c 3f
       0.533728 0.85870564 0.88107115 0.8006272
000180 2c 92 64 3f 3f c5 80 3f 66 ba 6b 3f a5 e0 32 3f
       0.8928554 1.0060195 0.92081296 0.6987403
000190 13 42 3c 3f fc 5c 5b 3f d5 98 47 3f 71 be 3e 3f
       0.7353832 0.8568876 0.7796758 0.7450934
0001a0 f3 27 49 3f d7 11 66 3f 4c d2 56 3f de 6c 74 3f
       0.7857658 0.8987097 0.8391464 0.9547862
0001b0 aa 0e 49 3f 0f cf 59 3f 92 fa 74 3f bc 1d 36 3f
       0.78538 0.8508157 0.9569484 0.7113912
0001c0 ce 7e 6c 3f 99 a5 6b 3f 45 6b 69 3f 3d e9 34 3f
       0.9238099 0.92049557 0.91179305 0.70668393
0001d0 de a8 80 3f ce 85 6d 3f 3e 0c 7a 3f fb 86 68 3f
       1.0051534 0.92782295 0.9767493 0.90830964
0001e0 51 d1 57 3f 18 81 72 3f 66 04 35 3f 0a 15 06 3f
       0.84303766 0.9472823 0.70709836 0.52375853
0001f0 33 d2 50 3f 2c 66 f6 3e 49 89 41 3f dd c6 60 3f
       0.8157074 0.48124826 0.75600106 0.8780344

bias f4 [128]
000000 b8 9c 6a be e1 78 92 be 25 4d ee bd 29 09 44 be
       -0.22911346 -0.28607848 -0.11635808 -0.1914412
000010 32 ba a3 3d d2 95 2c be 1c ab 7f 3e 93 50 ca bd
       0.07994498 -0.16854027 0.24967617 -0.098786496
000020 9b fa 86 3c f9 5a 6f bd a2 81 67 be 80 90 34 be
       0.01647692 -0.058436368 -0.22608045 -0.17633247
000030 cf c4 cf be 8e a3 25 3d 46 59 02 bf 27 77 19 be
       -0.4057984 0.04043918 -0.5091747 -0.1498686
000040 8e 9a b4 3e 1e 57 e8 be 1b 0c 98 be a6 0b c1 be
       0.35274166 -0.45378965 -0.29696736 -0.377042
000050 f4 a5 a9 be f9 eb b5 3e be 3a 46 be 34 16 87 3e
       -0.33134425 0.35531595 -0.19358346 0.26384127
000060 d0 83 25 3e 4e 3d 2f 3c f8 6d f5 bc ce 2c be be
       0.16163564 0.0106957685 -0.029959664 -0.37143558
000070 9b 89 8e be 2e 40 6a 3d a7 e0 60 be 3a 73 06 be
       -0.2783936 0.057190113 -0.21960698 -0.13129893
000080 02 b6 f9 bd f5 7f 50 be 53 e3 2c 3d fa 33 89 3c
       -0.12192918 -0.20361312 0.04220898 0.016748417
000090 1c 1f 85 be f6 da e5 be b8 53 32 be 60 95 ed bd
       -0.26000297 -0.44893616 -0.17414749 -0.11600757
0000a0 33 7d cf bd 4e 12 8d be 17 e2 fe bd 05 df a3 be
       -0.10131302 -0.27553028 -0.12445467 -0.32006088
0000b0 01 89 71 be ee 0f 0f bd a4 96 97 be 04 8a 93 be
       -0.23587419 -0.0349273 -0.29607117 -0.28816235
0000c0 f6 48 b7 be 97 0c d0 be bb 90 07 be 76 a8 2b be
       -0.35797852 -0.40634605 -0.13238804 -0.16763481
0000d0 b0 0f c5 be d7 e1 1d be 21 8c a9 be 0f bc 2f be
       -0.3848853 -0.15418182 -0.33114722 -0.17161582
0000e0 1e 80 15 be a5 5e eb 3b db fe 85 be 5b be 72 be
       -0.14599654 0.0071829134 -0.26171002 -0.23705427
0000f0 2f 61 1c 3b 90 9e 9e be 5c ef 56 be 3b b7 58 be
       0.0023861637 -0.3098035 -0.20989746 -0.21163647
000100 94 68 9f be 0f 69 c9 be 4e 57 fc bd ee f7 d5 bd
       -0.31134474 -0.39337966 -0.123213395 -0.104476795
000110 e0 4d 11 be 22 ab c2 3d 52 d5 7c bc 8b d8 5f be
       -0.14189863 0.09505297 -0.015431719 -0.21859948
000120 45 99 61 be 12 f5 24 be ec b3 c1 be 72 a5 fb 3d
       -0.22031124 -0.16109112 -0.37832582 0.122874156
000130 2f eb 20 be 40 7c 1d be 5e 23 34 3e f7 19 ed be
       -0.15714715 -0.15379429 0.17591617 -0.46308872
000140 c1 64 20 be 52 96 64 be 6c 98 8b be eb 81 06 3e
       -0.15663435 -0.22322968 -0.27264726 0.13135497
000150 b3 60 86 be 84 46 c5 be 66 a9 c7 be d1 4f 1d be
       -0.2624565 -0.38530362 -0.38996428 -0.15362479
000160 a2 61 57 be bf 96 28 be 6a 0b 5e be 46 2e b8 3a
       -0.21033338 -0.16463755 -0.21684042 0.0014051876
000170 c4 55 77 3d 63 5f d1 be 95 80 1b be 18 88 a9 3e
       0.060384527 -0.40893087 -0.15185769 0.33111644
000180 62 44 c2 be 94 d3 92 be 28 74 d8 bd 43 2c 91 be
       -0.37942797 -0.28677046 -0.1056903 -0.28354082
000190 e2 a6 46 be 2c df 57 be f5 31 47 be 6a e1 92 bd
       -0.19399598 -0.21081227 -0.19452651 -0.071719006
0001a0 bb 0a 72 be c1 f4 ef be 8c c6 5b be 7c 2d fa bd
       -0.23636906 -0.4686642 -0.21462458 -0.12215707
0001b0 40 98 18 be cd 96 a9 3e 84 a2 97 be 45 10 14 be
       -0.14901829 0.33122864 -0.29616177 -0.14459331
0001c0 91 d8 4f be 73 eb 14 be 2a bf e8 be 4b 71 e0 bd
       -0.20297457 -0.14542942 -0.45458347 -0.10959109
0001d0 d5 6f b1 be 35 c3 db be b4 6b 31 be 27 97 d6 be
       -0.34655634 -0.4292237 -0.17326242 -0.41912195
0001e0 6c b6 02 bf b4 38 92 3d a8 b7 62 be 33 53 80 be
       -0.51059604 0.071397215 -0.22140372 -0.25063476
0001f0 41 e2 89 be 2e 0e 65 be 9a dd f8 bd 8a 76 4d be
       -0.2693043 -0.2236869 -0.12151642 -0.2006475

running_mean f4 [128]
000000 04 0c 25 c5 9f ac 4d c5 73 59 8a c4 92 e5 a6 41
       -2640.751 -3290.7888 -1106.7953 20.862095
000010 a9 8d 05 44 a4 d3 33 c5 4a d2 cf 43 1c 54 79 44
       534.21344 -2877.2275 415.64288 997.3142
000020 d7 1c 1a 44 76 dc 69 c4 fb 91 8e c4 2b 7e 27 c4
       616.4506 -935.4447 -1140.5619 -669.9714
000030 d8 f7 e4 43 07 5c 98 c4 e9 4f c3 c3 21 83 a9 c4
       457.93628 -1218.8759 -390.6243 -1356.0978
000040 7f 83 ce 43 f8 52 a3 c3 1b 59 20 c5 18 56 8b 44
       413.0273 -326.6482 -2565.569 1114.6904
000050 e1 8d 77 c3 a1 fa 17 c4 2a bc f4 44 b8 29 8d 44
       -247.55421 -607.9161 1957.8801 1129.3037
000060 f9 f9 ac 43 59 cd e2 c4 0c 1d 9d c4 d4 5d 9e 44
       345.9529 -1814.4171 -1256.9077 1266.9321
000070 7a 8b dd c2 9b b3 59 c5 9f 06 f5 43 26 bc 75 43
       -110.772415 -3483.2253 490.05173 245.73495
000080 16 ef 9d 43 2d 21 a7 44 07 bf af 43 dd ae b7 c4
       315.86786 1337.0367 351.4924 -1469.4645
000090 d5 0d 1e c4 a8 a7 05 c4 fd b0 22 45 16 3d 7f 44
       -632.2161 -534.6196 2603.0618 1020.95447
0000a0 c8 5f b3 c4 8f f1 e6 c3 c2 1d 18 45 fb fd ad c4
       -1434.9932 -461.88718 2433.8599 -1391.9369
0000b0 fe 2f dc 42 64 25 14 c5 8f 01 e2 c4 a1 a7 81 44
       110.093735 -2370.337 -1808.0487 1037.2384
0000c0 f4 66 21 c4 a1 53 96 43 47 91 42 44 f4 94 20 43
       -645.60864 300.65335 778.26996 160.58185
0000d0 b5 12 04 c1 18 e8 f9 c4 ce ef 83 c3 0e 13 aa 44
       -8.254567 -1999.2529 -263.87347 1360.5955
0000e0 d2 4f c0 43 b4 09 9f c3 bf bb 4b 43 4b 7d f0 44
       384.6236 -318.0758 203.73338 1923.9154
0000f0 c4 19 bc c4 d0 db a9 c4 cc 3f a1 c4 b7 6a 9f 43
       -1504.8052 -1358.8691 -1289.9937 318.8337
000100 3c 3f a2 c4 67 c0 da c1 1b 4e e9 c4 37 98 1b c4
       -1297.9761 -27.343946 -1866.4408 -622.37836
000110 08 ee 2e 45 b0 78 5d c4 f6 61 91 c4 01 7a 8a c4
       2798.877 -885.88574 -1163.0613 -1107.8126
000120 c7 89 0f c5 46 02 fc 44 9e e4 a1 44 63 94 a9 c4
       -2296.611 2016.071 1295.1443 -1356.6371
000130 6a b4 b4 44 9c 07 a7 43 11 62 7f c4 26 d2 d2 c3
       1445.638 334.05945 -1021.5323 -421.64178
000140 5a f7 3c 44 91 20 bc 43 0e d8 31 44 a4 2e fb 44
       755.86487 376.25443 711.37585 2009.4575
000150 dc ea c6 c4 cf ad 3a 44 c0 58 0a 44 8b 8a f0 44
       -1591.3394 746.71576 553.3867 1924.3295
000160 db e3 15 43 a2 61 12 45 96 5d 0c 45 41 31 8a c4
       149.89006 2342.102 2245.849 -1105.5392
000170 33 f4 00 c4 19 d9 fb c2 c9 c1 33 c5 e3 18 6e c4
       -515.8156 -125.92402 -2876.1116 -952.38885
000180 4f 0f e6 43 81 87 98 c4 5d 42 15 c5 54 08 a2 44
       460.1196 -1220.2345 -2388.1477 1296.2603
000190 a6 f5 1b 45 ac 0e 3e 44 c3 02 0e 45 70 d1 6f c4
       2495.353 760.22925 2272.1726 -959.27246
0001a0 10 ac b0 c1 da 19 80 c3 fa 0d cd c4 7f 2a 08 44
       -22.084015 -256.20197 -1640.4368 544.664
0001b0 06 1c e6 44 74 5f 67 c4 85 e8 9b 43 34 87 b4 41
       1840.8757 -925.49146 311.81656 22.566017
0001c0 41 27 1d c4 8d 3b c2 c4 17 fa e6 c3 4a de 35 c4
       -628.61334 -1553.861 -461.95383 -727.47327
0001d0 2b 89 71 44 af d7 48 44 a2 50 46 c4 93 2a ef 43
       966.14325 803.37006 -793.2599 478.3326
0001e0 c4 18 f5 c3 ac 90 a5 c4 53 fb 80 43 05 e1 1c c5
       -490.19348 -1324.521 257.96347 -2510.0637
0001f0 37 94 30 c3 5f 84 36 42 fb d9 4d 42 b2 1b f8 44
       -176.57896 45.62927 51.46287 1984.8655

running_var f4 [128]
000000 a7 cf 0f 4b ce 1e 5c 4b f7 6b cc 49 85 15 3d 48
       9.424807e+06 1.4425806e+07 1.6746229e+06 193622.08
000010 ba c2 f9 48 52 c1 2a 4b 70 fc c6 48 27 50 a7 49
       511509.8 1.119061e+07 407523.5 1.3706289e+06
000020 e4 78 1a 49 80 d1 a7 49 fc e7 e7 49 c0 ea 2b 49
       632718.25 1.374768e+06 1.8997755e+06 704172.0
000030 c2 80 e8 48 56 0d 05 4a 8c 05 db 48 a7 e3 21 4a
       476166.06 2.1799255e+06 448556.38 2.6523938e+06
000040 91 99 c6 48 cd 5f 46 48 f8 e8 06 4b a7 2e d0 49
       406732.53 203135.2 8.841464e+06 1.7054289e+06
000050 89 a6 57 48 ae cc 01 49 e8 bf 9c 4a d2 0e ef 49
       220826.14 531658.9 5.136372e+06 1.9583622e+06
000060 b3 ef c3 48 5b 9f 8d 4a 31 dd 12 4a d2 28 08 4a
       401277.6 4.6406855e+06 2.4062202e+06 2.2308365e+06
000070 9c 1f f1 47 31 ae 78 4b 9f 9a 19 49 fb 50 55 48
       123455.22 1.6297521e+07 629161.94 218435.92
000080 01 32 6b 48 53 76 12 4a e1 5c 21 49 1e 40 38 4a
       240840.02 2.3996368e+06 660942.06 3.0187595e+06
000090 bd 52 14 49 ad 71 cd 48 2f 60 0b 4b 74 84 c4 49
       607531.8 420749.4 9.134127e+06 1.6098705e+06
0000a0 b5 2a 33 4a 95 37 a0 48 9b 1f f1 4a 1a 13 24 4a
       2.9354692e+06 328124.66 7.9011335e+06 2.6881985e+06
0000b0 26 9d c5 47 82 60 e6 4a 3b 9b 86 4a 55 c0 b8 49
       101178.3 7.548993e+06 4.4107815e+06 1.5134826e+06
0000c0 49 85 1c 49 f0 53 ba 48 fb d4 98 49 d2 c1 43 48
       641108.56 381599.5 1.2519994e+06 200455.28
0000d0 ff 10 ce 47 24 0a a6 4a 9c bd 36 48 fa f7 19 4a
       105505.99 5.440786e+06 187126.44 2.5226225e+06
0000e0 0c fa e6 48 65 25 1e 48 94 e0 bc 47 cf 6b 96 4a
       473040.38 161941.58 96705.16 4.9289995e+06
0000f0 e1 99 45 4a c6 5a 18 4a d2 5f 0a 4a 4e 23 9c 48
       3.2374962e+06 2.4961775e+06 2.2671245e+06 319770.44
000100 48 aa 0e 4a 51 7c 87 48 4f 43 8e 4a 2e 1e 23 49
       2.337426e+06 277474.53 4.6616715e+06 668130.9
000110 1a 97 1f 4b 7a af 93 49 a4 bc fe 49 69 35 cd 49
       1.0458906e+07 1.2098392e+06 2.0868045e+06 1.6810691e+06
000120 b1 b1 d5 4a 0a 9e ab 4a 92 40 16 4a f3 4f 23 4a
       7.0023285e+06 5.623557e+06 2.4617325e+06 2.6757088e+06
000130 23 43 4a 4a cc 3b 8c 48 0a 82 bd 49 0a b8 b1 48
       3.3138648e+06 287198.38 1.5524492e+06 363968.3
000140 58 46 49 49 ea cf 52 48 99 3d 3c 49 f4 69 a4 4a
       824421.5 215871.66 771033.56 5.387514e+06
000150 5e a4 4f 4a 6d 89 63 49 3e c1 18 49 5c fb 96 4a
       3.4020075e+06 931990.8 625683.9 4.947374e+06
000160 7d 32 19 48 9e 39 df 4a 62 c3 cd 4a bc 25 e5 49
       156873.95 7.314639e+06 6.742449e+06 1.8771755e+06
000170 c6 a2 2d 49 f6 0c 9e 48 cb 7a 29 4b de 3c a0 49
       711212.4 323687.7 1.1107019e+07 1.3126678e+06
000180 a2 fa 12 49 2e 09 fd 49 d0 5e ee 4a 29 41 14 4a
       602026.1 2.0728698e+06 7.81092e+06 2.4290022e+06
000190 b5 e5 fc 4a 1e 00 9e 49 d6 49 d2 4a 01 c1 9f 49
       8.2869385e+06 1.2943398e+06 6.890731e+06 1.3087041e+06
0001a0 6c 42 0b 48 79 da 0e 48 d5 03 5c 4a 4e b3 33 49
       142601.69 146281.89 3.6047252e+06 736052.9
0001b0 6f 78 8c 4a 44 7b 91 49 96 f6 86 48 c0 4d 2d 48
       4.6029355e+06 1.1917845e+06 276404.7 177463.0
0001c0 6a dc 12 49 67 7f 53 4a a4 e1 8c 48 91 e8 43 49
       601542.6 3.4651778e+06 288525.12 802441.06
0001d0 02 c0 b4 49 b2 0c 83 49 f6 26 66 49 71 d5 c0 48
       1.4807042e+06 1.0735582e+06 942703.4 394923.53
0001e0 55 76 11 49 99 38 19 4a 8b 12 5b 48 f8 74 00 4b
       595813.3 2.5103742e+06 224330.17 8.418552e+06
0001f0 26 4b 10 48 75 76 22 48 e9 2e 45 48 fe 5d a0 4a
       147756.6 166361.83 201915.64 5.254911e+06

weight f4 [64, 128]
000000 54 36 86 3d 38 7b b2 bc 43 25 97 3d a9 5a 8a bd
       0.06553331 -0.02178727 0.07380154 -0.06755573
000010 c0 06 a4 bd a0 60 77 3d c5 22 33 3d 77 0e c3 bd
       -0.080091 0.060394883 0.04373433 -0.09524243
000020 cb 5c 4f bc b4 88 97 bc c8 d6 19 3c 18 9a 8f 3d
       -0.012656401 -0.018497802 0.009389587 0.07011813
000030 67 41 5f 3d 7e e1 00 bc a9 17 ea 3c c9 c8 99 bd
       0.054505732 -0.0078662615 0.028575735 -0.07509
000040 30 73 8e 3c 68 9c 3a 3d d9 2d d9 3c 63 20 61 3d
       0.01738891 0.045559317 0.02651112 0.054962527
000050 dc 7f 0d 3c 3d d9 d3 3c 0a 86 19 3c f2 00 78 bd
       0.008636441 0.025860423 0.009370336 -0.060547777
000060 87 85 dd bc b8 14 2f 3d b0 31 01 3d a1 03 92 3d
       -0.02704121 0.04274437 0.031541526 0.071295984
000070 ab e2 94 3c aa b4 8b bd 4f e0 e7 3c c5 a1 14 bb
       0.01817449 -0.06821568 0.0283052 -0.002267943
000080 4f 9d 94 bc 52 14 06 bd 75 58 a0 3d bb 27 fc 3c
       -0.018141417 -0.032734223 0.07829372 0.030780664
000090 06 31 82 3d cd 07 16 bd 03 72 b2 3c f6 4f 56 bd
       0.06357007 -0.036628533 0.02178288 -0.05232235
0000a0 8e 7d 05 3d a7 38 cb 3c 8b d3 bd bd 1c c0 f3 3c
       0.03259044 0.024807287 -0.09268864 0.02975469
0000b0 34 a8 ce bd f4 d2 56 bc a0 8e 2b 3d 70 80 23 3b
       -0.10090676 -0.013111819 0.041884065 0.002494838
0000c0 be 67 a1 3d 4a 0a ad 3d c8 21 ac bd 6d 6f de bc
       0.078811154 0.08449228 -0.08404881 -0.027152741
0000d0 38 e1 1f 3d 6c 80 06 bd 0b 9b c9 bd 23 c7 ac 3c
       0.039033145 -0.032837316 -0.09844025 0.02109105
0000e0 2b ae 89 bd f6 3d 89 bd 76 0b bd bd f3 55 7a bd
       -0.06722673 -0.06701271 -0.092307016 -0.061117124
0000f0 cc 83 83 3c 94 17 04 3d 9a 96 86 bc c1 d9 bc bd
       0.016054057 0.03224905 -0.016429234 -0.09221221
000100 e1 e5 f4 3c 1e 47 76 39 56 52 aa bd 6e 34 07 bd
       0.029894771 0.00023486881 -0.083164856 -0.033008985
000110 ef 82 48 3d 01 6e 83 bd 20 25 4b 3d 57 13 77 3c
       0.048952993 -0.06417466 0.049595952 0.015080295
000120 47 a7 b8 bd 75 a7 df 3c 42 56 8b 3d fe 7f 4e bc
       -0.090162806 0.02730153 0.06803562 -0.012603758
000130 2c 4f 7d 3d c1 f6 4a bd 7f c6 bf bd ba ac a0 3c
       0.061843082 -0.04955173 -0.09364032 0.019613612
000140 ac e6 b6 bd 1b 29 95 bd ad a4 91 bd 71 fd 03 3b
       -0.08930716 -0.07283231 -0.071114875 0.0020140077
000150 f3 13 be bc 24 7e 89 bd 0a 68 f7 bc 2e 07 19 3c
       -0.023202872 -0.067135125 -0.030200977 0.009340091
000160 97 19 93 3c d9 3f de bd 14 70 a0 bd fa 15 ad bc
       0.017956538 -0.10852022 -0.07833877 -0.021128643
000170 a3 c0 34 3d 2b 0e c0 3c 64 e5 81 3d 94 60 27 bd
       0.044129025 0.023444256 0.06342581 -0.04086359
000180 92 d0 a7 3d a0 07 0d 3d 80 1e 8b bd 5c aa d2 bd
       0.081940785 0.0344311 -0.06792927 -0.102864
000190 53 e7 0f be 8a 17 80 3b 47 b5 09 bd 40 97 b2 bd
       -0.14053087 0.003909056 -0.033620145 -0.08720255
0001a0 34 c2 1b bd ba 0f 5a 3d 8a b6 a4 3c de b1 a9 bd
       -0.038027003 0.053237654 0.020106573 -0.082858786
0001b0 1d c0 cc bd c9 b9 59 3d 80 1f 98 3b 74 3f 5c bd
       -0.0999758 0.053155694 0.004642427 -0.05377145
0001c0 2c 82 12 be 08 86 40 3d 72 84 df bc 74 7d f6 bd
       -0.14307469 0.047002822 -0.027284835 -0.12035647
0001d0 77 2f f4 3d 9c 5c 30 3d 79 34 43 bd 45 67 20 3d
       0.11923116 0.04305707 -0.047657464 0.039160985
0001e0 54 9b 31 3d ea fd cb bd cc 2d 1f bd e8 d7 24 bd
       0.043361023 -0.0996054 -0.038862035 -0.040244967
0001f0 3f e2 8f bd 8f 5c 35 3d 89 56 d0 bd 96 60 e6 bc
       -0.07025575 0.044277724 -0.10172755 -0.028122228
000200 a0 d2 8f 3d a5 05 40 3e 7b db 5b 3c 7f a0 77 3d
       0.070225954 0.18752153 0.013419027 0.060455795
000210 b2 c4 15 3d 79 80 95 3d 2e 52 fd 3b 9e 05 24 3b
       0.036564536 0.07299895 0.007730744 0.0025027762
000220 12 a5 0a bd 24 a9 23 3e 79 b6 13 bc 52 ed b7 3d
       -0.03384883 0.15982491 -0.009015673 0.08980812
000230 cf ea 31 3e 60 5f 7b 3d 23 e6 08 3e 68 ed 26 bc
       0.17374729 0.061370254 0.1336904 -0.010188438
000240 aa b9 d8 3c bb 4f d2 3d e8 a9 ce 3d c7 36 07 3c
       0.026455719 0.10269114 0.10091001 0.008252806
000250 09 db fe 3d 98 c5 be 3d 1e bc 98 3d 1a 21 b4 3d
       0.124441214 0.09315032 0.074577555 0.08795376
000260 3f 0f 33 3d a2 ba 17 3d 18 05 ab 3d 30 ed 6a 3d
       0.04371571 0.03704322 0.08350581 0.057355106
000270 7e ab 28 3d ae 67 23 3e 07 fc 0e 3e 5d 74 9b 3c
       0.041179173 0.1595752 0.13963328 0.018976385
000280 aa 56 8e 3c b0 b5 df 3b be 82 8a 3d 85 fe 8d 3d
       0.017375309 0.0068270788 0.06763218 0.069333114
000290 70 6a ec 3d 72 5a 5c 3e 1f 4c 5c bd 85 c3 48 bc
       0.11543739 0.21518877 -0.053783532 -0.012253647
0002a0 b8 f4 59 3d 90 3e cd 3d 2d 66 92 3d da fa 42 3d
       0.053211898 0.100216985 0.07148395 0.047602512
0002b0 12 fe 78 bd c0 ed 2c bd 83 11 2f 3e c1 4b 53 3e
       -0.060789175 -0.042218924 0.17096524 0.20634367
0002c0 57 2a 30 3e 97 66 3e 3e 8c d0 1b bd b6 93 df 3c
       0.17203651 0.18593822 -0.038040683 0.027292114
0002d0 4f 47 ed 3c 0f 06 ec 3c 7d 9a 84 bd de 5c 67 bc
       0.028964667 0.028811483 -0.06474779 -0.014121262
0002e0 db 93 26 bd 42 68 45 3d c4 db a3 3c 8b f4 fb 3d
       -0.04066835 0.04819513 0.020002253 0.12302502
0002f0 b4 a3 66 3d 73 f5 c3 3d 25 d2 48 3c ae e1 56 bd
       0.056308463 0.095683 0.012257134 -0.05246132
000300 58 ed 5c 3c 94 02 7f 3c 48 bf 09 3d e4 ba 0c 3e
       0.013484322 0.0155645795 0.033629686 0.13743168
000310 c3 75 5c 3d 65 82 10 3d ae a4 2d 3e 4a 59 e4 3d
       0.053823244 0.035280604 0.16957352 0.11149843
000320 32 47 a5 bb e8 5f 29 bd 8e bc 5c 3e c9 93 06 3e
       -0.0050438875 -0.04135123 0.21556303 0.13142313
000330 d6 86 9d 3d 38 de 4e bc 6c 2f 0e 3d 86 28 a2 3d
       0.076917335 -0.012626223 0.034713194 0.079178855
000340 8d 19 4a 3d a7 a1 89 3c aa a7 16 3d e5 79 a3 3d
       0.049340773 0.016800715 0.03678099 0.07982234
000350 6c ac 89 3e 13 ab 16 3d cb e6 51 3e ec 57 2b 3c
       0.2688936 0.036784243 0.20498197 0.010457974
000360 da b4 9e 3d db 5e a7 3d 3e 4b 55 3d 1c 48 10 3e
       0.077493384 0.08172389 0.05207371 0.14090008
000370 77 50 f4 3d a0 1a ee bc 8f 3c 7d 3d 57 24 8f 3d
       0.1192941 -0.02906543 0.06182533 0.06989353
000380 54 f2 fd 3d 4c 75 08 3e c4 06 5d 3e 4d 42 0f 3b
       0.12399736 0.13325995 0.21584612 0.0021859587
000390 1d fd 08 bd ec 51 a6 3c 44 7d 8d 3d 03 c9 ec b9
       -0.033444513 0.020302735 0.06908658 -0.00045163193
0003a0 a4 f8 b5 bc bd dd e3 3d 08 11 38 3d 3e 28 1d 3e
       -0.022213288 0.111262776 0.044938117 0.15347382
0003b0 18 86 50 bd 87 6c 12 3d 05 ed d0 3d 42 f8 e8 3d
       -0.05090913 0.03574803 0.10201458 0.113754764
0003c0 1d 2d 20 bd b0 40 5f 3e a2 74 f3 3d 0d 76 b6 bd
       -0.039105523 0.2180202 0.1188748 -0.08909235
0003d0 41 9b b5 3d fb d5 73 bc 05 ca 1b 3e fd 4b 97 bc
       0.08867503 -0.01488256 0.15213783 -0.018468851
0003e0 c0 24 c8 3d d5 8f fc 3d 14 ac 84 3d 4d 6d 08 3e
       0.097726345 0.12332121 0.06478134 0.13322945
0003f0 27 64 cc 3d e5 7c 82 3d e3 23 c5 3c f9 4c d1 3d
       0.0998004 0.06371478 0.024064964 0.102197595

bias f4 [64]
000000 a8 d0 45 be 43 cf 91 be 99 1e 2a 3e 82 f6 03 3f
       -0.19317877 -0.2847844 0.16613235 0.51548016
000010 59 22 14 be 98 28 33 bd a2 7e a4 3e 88 df f5 bd
       -0.14466228 -0.043739885 0.32127863 -0.12005526
000020 7c 3e f2 3d e7 b2 b1 bc 9b dd 33 be 51 54 55 bd
       0.11828324 -0.021691753 -0.17565005 -0.052082364
000030 32 91 c7 3c ef 14 e2 3e 55 b5 a5 3d 68 03 be 3e
       0.024361227 0.44156596 0.08091227 0.37111974
000040 23 10 c3 bd 93 c0 98 bd 11 e5 bc bd 0d 35 e2 3e
       -0.09524562 -0.074586056 -0.092233784 0.441811
000050 0e 72 68 bd e0 aa f3 3c 98 16 00 bd a5 de 1f bc
       -0.056749396 0.029744565 -0.031271547 -0.009757672
000060 ef d7 88 3e 06 34 58 be 19 9a 1e 3d 30 bf a6 3c
       0.26727244 -0.21113595 0.038721178 0.020354837
000070 a1 26 0f be a5 a0 e3 3c 8d e6 bf bd ee 27 b5 bd
       -0.1397958 0.027786562 -0.09370146 -0.088455066
000080 0f 5b 2d bc a2 35 b7 bc 95 29 83 bd 72 db 94 be
       -0.010580792 -0.022364441 -0.064044155 -0.29073673
000090 34 4b e2 3d 2f b5 c7 3e 01 f9 a5 bd 1a 0a 5c 3d
       0.110495 0.3900542 -0.08104134 0.05372057
0000a0 53 09 ef 3d 6e 8c ae bd c8 55 04 3e 92 ae 12 be
       0.116717 -0.085228786 0.12923348 -0.14324406
0000b0 1b 9e 94 bd b2 57 36 3e 68 e5 42 bd fd d5 52 bd
       -0.07256719 0.1780689 -0.04758206 -0.051473606
0000c0 b4 f5 27 bd 7a 5b a1 3a 37 29 a2 3e 69 ce 10 be
       -0.041005805 0.0012310587 0.3167207 -0.14141239
0000d0 4c 35 06 3f 16 62 e0 bd 55 b1 0b 3f db 1c 4c bc
       0.52425075 -0.109562084 0.5456746 -0.012458052
0000e0 e8 b7 cc bc 6f bd 85 3e d0 c4 12 be 0a ed 0d 3d
       -0.024990037 0.2612109 -0.1433289 0.034649886
0000f0 97 5e 96 bb 82 6c 1a be 6c 7a 81 bc 43 4b 36 3e
       -0.0045889127 -0.15080455 -0.015805446 0.17802148

weight f4 [64, 1]
000000 92 13 3f be 6c 7f 1b 3f e0 a8 ca bd bd 4a 5b bf
       -0.18659809 0.60741305 -0.098954916 -0.85660917
000010 12 fc 62 bf f2 22 aa 3e 3e a2 5d 3f 3b 9e 4c 3e
       -0.8866588 0.33229786 0.86575687 0.19982235
000020 3f ca 80 bf f5 3c e5 bd 8c 91 a0 bf ab 9d d0 3e
       -1.0061721 -0.11193267 -1.2544417 0.4074529
000030 a2 0d 5c bf ce cc 00 3f fe 41 b2 be 99 e4 9a 3f
       -0.859583 0.5031251 -0.34815973 1.2101012
000040 a3 71 5d bf f1 04 8e bf d2 16 92 3e a5 7f 1e 3f
       -0.8650152 -1.1095258 0.28533036 0.6191352
000050 d6 30 97 bf 02 78 78 bf 69 d9 97 3f 35 a3 9c 3f
       -1.1811779 -0.9705812 1.1863223 1.2237307
000060 52 a5 65 3f f6 60 90 3f 25 3d 54 3f ca 3d 97 3f
       0.89705384 1.127959 0.829058 1.1815732
000070 e4 0f b4 3e c4 b9 8c bf 83 fd 6c bf 3c 18 3f 3f
       0.35168374 -1.0994191 -0.9257433 0.74646354
000080 f2 04 ed bc 30 99 a0 3f 0e 56 a1 3f bb 41 87 3f
       -0.028933022 1.2546749 1.2604387 1.0566934
000090 ce e7 8a bf fb 11 3c bf f3 f0 8a 3f 99 df 78 3d
       -1.0851991 -0.73464936 1.0854782 0.060760114
0000a0 86 09 91 3f ef 9c 4a 3f cc 45 bd bf da f4 90 3e
       1.1331031 0.7914571 -1.4786925 0.28311807
0000b0 89 56 d5 3c 8a 9a ac be b3 05 a4 3f b8 9b 8d bf
       0.02604224 -0.33711654 1.2814239 -1.1063147
0000c0 a6 47 93 3f d5 22 84 3f 84 cb a8 3e 78 17 9a 3f
       1.150624 1.032313 0.3296777 1.2038412
0000d0 52 1e a3 3e 18 cb 09 bf 35 5e 81 bf a5 b0 91 3f
       0.3185907 -0.5382552 -1.0106875 1.1382033
0000e0 11 f1 09 bf d0 fb 0e 3e 56 2b d8 be 52 cb 50 3f
       -0.53883463 0.13963246 -0.42220563 0.8156024
0000f0 b3 47 16 be 66 f5 3d be 41 ac 77 bf 71 f0 ac 3f
       -0.14675789 -0.18550643 -0.96747214 1.3510877

bias f4 [64]
000000 52 ad bd 3f f7 fa 84 3f 78 3b 87 3e f2 27 cf 3e
       1.4818518 1.0389088 0.2641256 0.40460163
000010 82 1c 0e 3f 25 3a af be 95 7d b2 bf 75 e6 8e bf
       0.5551225 -0.34224048 -1.3944575 -1.116408
000020 a6 88 5e bf 9b 2e 3e bf ee 02 15 bf b0 4d 63 be
       -0.8692726 -0.74289864 -0.58207595 -0.22197604
000030 f1 c3 7c bf 20 11 66 3f c3 df c7 3f 15 cb 4f 3f
       -0.9873648 0.8986988 1.5615162 0.81169254
000040 9f dd 26 3f e0 5a ef 3e 55 7a 86 bf 2e 51 fb bd
       0.65181917 0.4674902 -1.0506083 -0.12271343
000050 53 8e 8d 3f 6f 2b a6 3e 06 1a 1e 3f 10 ea 96 3f
       1.1059059 0.32455012 0.6175846 1.179018
000060 26 f2 6c 3e 0e 4e aa be 13 7c 8e 3f 0c 3b 9b bf
       0.23139247 -0.33262676 1.1131614 -1.2127395
000070 e6 b9 aa 3c 56 b7 89 3e c2 38 e7 3d 7e b8 a8 bf
       0.020840596 0.26897687 0.112901226 -1.3181303
000080 25 d9 2b bf ca a6 35 3f 47 9b 3f be e1 86 83 3e
       -0.6712821 0.70957625 -0.18711577 0.25688842
000090 66 28 da 3e 1e 08 1d 3e d2 c6 42 3f b4 a6 29 3f
       0.42608947 0.15335128 0.76084626 0.66269994
0000a0 00 49 fa be 00 04 9e be 0a 90 65 bf 30 02 03 3f
       -0.4888382 -0.30862427 -0.8967291 0.5117521
0000b0 39 58 8e 3f 29 89 6e 3f e0 ae 4a bf e7 fe 05 3f
       1.1120673 0.9317804 -0.7917309 0.52342075
0000c0 94 95 71 bf 8b ee d1 bf 56 26 6c 3f 25 2b db 3e
       -0.94368863 -1.6400923 0.92245996 0.42806354
0000d0 88 cc 9f bf 3d fe 05 3d 10 53 8a 3f b3 5e a2 be
       -1.2484293 0.032713164 1.0806599 -0.31712875
0000e0 a1 6e 5b be 6c a8 49 3f 78 1e df 3e c8 91 89 be
       -0.2142892 0.78772616 0.43577933 -0.26869035
0000f0 e5 de c9 3d e1 9c 3a bf 78 47 87 3e 82 8c 57 bf
       0.09856967 -0.7289563 0.26421714 -0.8419877

weight f4 [128, 64]
000000 cc 9c 40 3c 81 e8 34 be d8 ef d1 bd 91 75 3f 3e
       0.011756133 -0.17666818 -0.10250825 0.18697192
000010 8c 25 a8 3d 2c 03 44 3c e3 28 78 bd 4c 9e a6 bd
       0.082102865 0.011963647 -0.060585868 -0.081356615
000020 a2 12 c7 bd 7e da 1a 3e ae 5a b0 bd 73 1c 34 bd
       -0.09720351 0.1512241 -0.08611046 -0.043972444
000030 ee ea 8b 3d a6 b3 2e bd 31 1e 69 3d ed 72 40 be
       0.06831919 -0.042651795 0.05691356 -0.1879384
000040 90 2c 6d 3c 4d 96 c6 3c 74 0d 13 3e 73 67 a9 be
       0.014475957 0.02424159 0.143606 -0.33086738
000050 34 73 d5 3c 79 28 f4 3c 9b 97 7d 3b 16 86 dd 3c
       0.02605591 0.029804455 0.00386951 0.027041476
000060 6c 0f 27 3e a9 a8 e6 3d 3c 66 39 3e cc e2 8a bb
       0.16314477 0.11262638 0.18105406 -0.004238462
000070 b4 9f ab 3d 81 e3 13 3d 71 b8 31 be d3 e3 82 bd
       0.0838007 0.036105637 -0.17355515 -0.0639111
000080 a5 6e c8 bd bd 34 28 be c6 b0 b8 3d 57 06 b5 bd
       -0.09786729 -0.16426368 0.09018092 -0.088391
000090 9e ec ec 3c f3 1a a6 3e 16 4e 34 3c 1d 82 75 3d
       0.028921422 0.32442436 0.011004945 0.05993854
0000a0 73 8a 33 bd 80 f1 0f 3d 88 02 4c 3e c7 5d 0e 3d
       -0.043833207 0.03514242 0.1992284 0.0347574
0000b0 d9 e8 9d 3d f3 07 8e be 1e b5 b6 b9 86 8c 02 be
       0.07710428 -0.2774044 -0.00034848688 -0.12748918
0000c0 3f de ca bd 0c b0 e2 bd b0 03 c5 bd d7 60 d7 3c
       -0.09905671 -0.110687345 -0.09619844 0.026291294
0000d0 32 ec e5 3c e8 19 e9 3d 4a 4f cb 3e 47 5a 13 bb
       0.028066728 0.11381894 0.3970893 -0.002248423
0000e0 14 02 3b bd ce 00 f1 bd be 7d 7a 3d 85 fd 67 3d
       -0.04565628 -0.117677316 0.061155073 0.05663826
0000f0 48 5d 62 3d bb de 81 bd 77 30 d3 be 59 13 46 3e
       0.05526474 -0.063413106 -0.41247913 0.19343318
000100 3a 39 d6 3c 65 fc 22 3d f0 08 6f bd c1 82 cd bd
       0.026150335 0.039791483 -0.058358133 -0.10034705
000110 a4 f6 ff 3e 9a 2b 98 3d 03 7b 0b 3d 15 04 b7 bd
       0.4999286 0.07430191 0.03405286 -0.089363255
000120 51 c4 c6 3d 74 70 e2 bd c3 7e 2a 3d de 3d 29 be
       0.09705413 -0.11056605 0.041624796 -0.16527507
000130 7c b7 ab be d6 96 44 be 5e 5a 87 3d 1c f7 fe bd
       -0.33538425 -0.19198164 0.06609033 -0.12449476
000140 de 93 cf bb e9 28 85 bd db 66 9c bd 3b 60 90 3e
       -0.006334766 -0.065019436 -0.076368056 0.28198418
000150 ce 32 61 3d a4 ae 9f 3d c1 a6 9b bb 5e b6 e4 3d
       0.05498009 0.07796982 -0.004750103 0.11167596
000160 87 01 7a bc 0e 34 bf bc 48 41 66 3e 83 80 89 3d
       -0.015259153 -0.023340251 0.2248584 0.06713965
000170 85 28 12 be c8 7a ba bd e4 a8 a6 3d 15 b9 53 bd
       -0.1427327 -0.0910545 0.08137682 -0.05169018
000180 48 32 b8 bd bc 86 cd bb f0 e8 fe ba 7c b4 ff 3d
       -0.089939654 -0.006272165 -0.0019448083 0.124855965
000190 61 d3 c6 3d b9 29 7a be 4e e6 91 3d 2f f0 c9 bd
       0.09708286 -0.24429978 0.07124005 -0.098602645
0001a0 09 f7 8a 3d dc e3 cf 3d e6 8d 30 3e b7 b3 a8 3d
       0.067853995 0.101508826 0.1724163 0.08237403
0001b0 11 31 d9 3c 0e f4 22 3d 93 4b 9f bd 4f ce e5 bc
       0.026512654 0.03978353 -0.077780865 -0.028052477
0001c0 f7 2f fb 3d 4f 7a 09 3e f9 12 05 be 4b 2a 48 be
       0.12265008 0.13425563 -0.12995519 -0.19547383
0001d0 15 37 86 be a4 ed c6 3e d5 42 95 be 17 b1 6a be
       -0.262139 0.3885318 -0.2915255 -0.22919117
0001e0 97 f0 ca 3b 47 57 90 bd 23 84 8e 3d 17 68 03 bd
       0.0061932313 -0.07047897 0.06958797 -0.03208169
0001f0 73 ed 90 bd e8 57 d3 bc e1 bf f6 3d 72 72 56 be
       -0.0707654 -0.025798753 0.12048317 -0.20942095
000200 4b 2f 61 3d 62 0a f9 3c 95 54 c6 bc 45 a8 6f be
       0.054976743 0.030400459 -0.024210254 -0.23404033
000210 04 d9 3e bf e9 77 3a bd 95 55 b6 bd b4 73 a3 bd
       -0.7454989 -0.04552451 -0.08903042 -0.07981053
000220 a3 db b2 bd 14 9a 6c bd ee b2 2f 3d e9 0c c8 bd
       -0.08733299 -0.057764128 0.04289525 -0.097680874
000230 0b 46 12 3b ab e7 61 be 8d 5c a1 3b aa d5 e0 3d
       0.002231958 -0.2206103 0.004924363 0.10978253
000240 47 d4 d9 3c 70 f6 34 be 08 9e 99 be 69 f0 85 3e
       0.02659048 -0.17672133 -0.3000338 0.2615998
000250 b7 47 dc 3c 97 78 3b be 6a dd ca bd 20 ac 4a 3d
       0.026889665 -0.1830772 -0.09905513 0.049480557
000260 b2 83 a5 b9 79 5f 24 be 42 87 f4 be ae cf 5c be
       -0.00031569373 -0.16052045 -0.47759444 -0.21563599
000270 12 67 82 be df f2 bb bd e3 70 fa 3d 42 d6 14 3c
       -0.2546926 -0.09177183 0.12228563 0.009084286
000280 2b f2 c1 bc 9c ec 0f 3d 99 ea b5 bd f2 12 58 bd
       -0.023675045 0.035137758 -0.088826366 -0.052752443
000290 37 03 0f bd e8 08 1d 3d 9c 7f fc 3d b9 97 74 be
       -0.034915175 0.03833857 0.12329027 -0.23886003
0002a0 e9 d8 f3 3d 16 ec 0d bd 65 49 b1 be df cf 5a 3d
       0.11906607 -0.034648977 -0.34626308 0.053420898
0002b0 15 1e 9f bd 03 ee 96 bc 31 3b 18 be 0e c4 f6 bb
       -0.077694096 -0.01842404 -0.1486633 -0.0075306958
0002c0 ae fe 80 bc fd 9b 4d 3d 8f 83 89 3d d1 32 2e bd
       -0.01574644 0.05019759 0.06714546 -0.04252893
0002d0 a1 c7 0a 3e 75 82 3a bf 59 fc ff 3c 5d 2b 34 be
       0.13552715 -0.7285531 0.031248258 -0.17594667
0002e0 a6 9f 42 be f1 c7 f5 3c 25 99 c7 3d cb 68 38 3b
       -0.19006214 0.030002566 0.09746007 0.0028138633
0002f0 c1 60 74 bd 0b 8c 66 be fe c4 2f be cf 39 6e bc
       -0.059662584 -0.2251436 -0.1716499 -0.01454015
000300 49 2c bd bd 1f eb 24 be 46 10 8b bd 48 ce 17 3e
       -0.09236962 -0.16105317 -0.06790213 0.14824784
000310 ff fe 9a 3e df be 9c bd 3c 08 64 3e b0 93 07 be
       0.30272672 -0.07653593 0.22268766 -0.13239932
000320 8e 89 cf 3c 0d 60 e0 3e 9d 7c a2 bd 9f 52 49 3e
       0.025334146 0.4382328 -0.07933924 0.19660424
000330 e8 f9 af 3d 1c 78 4b 3d 15 a7 9b 3d d5 3e 41 be
       0.08592588 0.049675092 0.07600228 -0.18871625
000340 d9 37 1a bc 7f 79 35 3d b4 b0 a7 3e 30 f3 8d be
       -0.009412729 0.04430532 0.32752 -0.277246
000350 1d 81 0c bd 3f 84 42 3e 27 5b ab bd cf 21 23 3d
       -0.03430282 0.1899576 -0.08366995 0.039827164
000360 b5 e0 bb 3e b0 e4 1d be 14 7a 99 3e 4c ab b7 be
       0.36694875 -0.15419269 0.2997595 -0.35872877
000370 e4 4e 5d 3e c5 e0 fd 3d 06 c7 30 3d 64 58 7d 3e
       0.21612126 0.12396387 0.043158554 0.2474075
000380 73 5a 9b 3d f0 f9 81 3d b8 6d 3d bd 69 e7 20 bd
       0.07585611 0.063465 -0.046247214 -0.03928319
000390 af 94 e4 3d cc e0 0d 3c 6a 22 11 3d 61 6f 2c be
       0.11161172 0.008659553 0.03543321 -0.16839363
0003a0 fb 53 1c 3d 9d 7d 4b 3d 40 a5 44 3e 27 8f 18 3e
       0.038166028 0.04968034 0.19203663 0.14898358
0003b0 9d 16 18 be 11 f6 bc bd 4d f9 2d 3e f3 2b a4 3a
       -0.14852376 -0.09226621 0.16989632 0.0012525305
0003c0 bb ca 11 bd 16 b0 13 be 8a 64 12 3e 6d 0c e6 3d
       -0.03559373 -0.1442264 0.14296165 0.11232839
0003d0 96 14 fb bd 80 67 80 3e ef a4 9c 3d 18 0c 75 3e
       -0.12259786 0.25078964 0.07648646 0.23930395
0003e0 d7 ea 26 3e 7b d8 74 bd fb db 78 3d 92 66 4e 3d
       0.16300522 -0.059776764 0.060756665 0.050390787
0003f0 1f 30 b0 bd 87 dc e0 bc 7a 24 5b be ca e0 f0 3d
       -0.08602928 -0.027448906 -0.21400633 0.11761625

bias f4 [128]
000000 7a a0 24 3c 18 ea 13 bd 1b 97 11 3d 78 98 ed 3d
       0.010048026 -0.03611192 0.035544496 0.11601347
000010 5a f9 b7 3c 17 65 42 3d 8e dc 95 3d f9 bc 6f bd
       0.022457767 0.047459688 0.07317458 -0.058529828
000020 48 31 74 3d 16 b9 59 3c 86 f4 3a 3c c2 13 d2 3d
       0.05961731 0.013288757 0.011410838 0.10257675
000030 e1 95 d0 bd 2a a8 b0 bc 30 84 d8 3d af 34 bf bc
       -0.10184837 -0.021564562 0.10572088 -0.023340551
000040 d9 4b 1d bd f5 6a 99 bd f4 72 1b be 94 b2 7c 3d
       -0.038402412 -0.074911036 -0.1518057 0.061693743
000050 f3 87 b0 bc 93 0f a5 bd df ea 2b 3d c0 3c d4 3d
       -0.0215492 -0.08059611 0.041972037 0.1036315
000060 3d a8 6b 3d 8c ad ad bd 42 bc 29 3d 93 93 b2 bd
       0.05753349 -0.08480367 0.041439302 -0.08719554
000070 77 65 aa 3d e0 3c 64 bd 3d 49 bf 3d d5 3d 9e bd
       0.08320134 -0.055722117 0.09340141 -0.07726637
000080 bb b1 cb 3d 34 24 8f bd e3 8b e0 bd 76 df 8c 3d
       0.09946009 -0.06989327 -0.10964181 0.06878559
000090 c8 13 c8 bd 3d 86 d5 bc db ee 2c bd 94 52 cb 3d
       -0.09769398 -0.026064986 -0.042219978 0.0992786
0000a0 77 b0 48 bd cf f4 85 bd a5 b8 01 3d 22 63 07 3c
       -0.048996415 -0.06540834 0.03167023 0.008263381
0000b0 44 57 a6 bd 53 5f 42 bd b6 ca e6 bd 83 e1 09 bb
       -0.08122113 -0.04745419 -0.11269133 -0.0021038956
0000c0 a4 dd b3 bd d4 e7 75 bd 84 ff ce 3d f3 dd 53 bc
       -0.08782509 -0.06003554 0.101073295 -0.012931335
0000d0 83 c9 e9 3c 76 51 cc bd ed a3 ce bc a3 17 4a bd
       0.028538471 -0.09976475 -0.02522465 -0.049338948
0000e0 13 73 f3 bd a8 e7 91 3d 24 77 71 bd 70 31 be 3d
       -0.11887183 0.07124263 -0.058951512 0.09286773
0000f0 be 09 8e bd ab 8f d6 3b c6 9a 50 3d 33 11 8c 3b
       -0.06935452 0.0065478883 0.050928853 0.0042745112
000100 7d af 82 bc 32 b9 f7 3b 93 50 7b 3d 68 79 01 3d
       -0.01595282 0.007559919 0.06135614 0.031609923
000110 5b 3e 90 3d dd 27 59 bd 00 b6 6b bd 16 01 1c 3d
       0.07043143 -0.053016532 -0.057546616 0.038086973
000120 1c e9 3c 3a 97 3e e0 bd 03 c4 98 3d 6d 1c f3 bd
       0.0007206367 -0.10949438 0.07459261 -0.11870656
000130 15 f0 d9 3d cf 55 a9 bd f9 e7 ed bd 42 e6 b7 3d
       0.10641495 -0.0826832 -0.11616511 0.08979465
000140 bf 2c 80 3d e3 62 8b 3d 9c b5 7d bd b8 07 06 bd
       0.06258535 0.068059705 -0.061940774 -0.032722205
000150 c9 56 19 3c a3 8e 52 3d 44 be 01 3c 44 18 d3 bd
       0.00935907 0.05140556 0.007918898 -0.10307363
000160 28 90 1d bd ed 44 bf 3d 21 d6 4c bc 2e e4 ee 3c
       -0.038467556 0.093393184 -0.012502224 0.029161539
000170 01 13 71 3d ce 77 80 bc 27 dc 6e 3d 1b 81 94 bd
       0.058856014 -0.015682127 0.058315422 -0.072511874
000180 82 ec ae 3c 85 ec ea 3c 96 c0 f7 3d 64 44 0d bc
       0.02135301 0.028677234 0.1209728 -0.008622263
000190 cf b3 6c bd fe eb f1 bc 72 bf d3 bc 4c 44 c5 bb
       -0.057788666 -0.029531475 -0.025848124 -0.0060201045
0001a0 ef 56 11 bd 48 58 9e 39 4b 6d 84 3d 0d 65 f6 bd
       -0.035483297 0.00030201883 0.064661585 -0.12030993
0001b0 0f ef 6b 3d da 9c a6 bd 41 33 09 3e 77 9a 62 bb
       0.05760103 -0.08135386 0.13398458 -0.0034576932
0001c0 03 4d 11 3b c2 46 b2 bd b2 a2 86 bc 19 b0 ba 3d
       0.0022171147 -0.08704902 -0.016435001 0.09115619
0001d0 b5 99 4b 3d 43 40 90 bd 56 7a 41 3d 39 02 a6 bb
       0.049707133 -0.07043507 0.04723581 -0.005066183
0001e0 60 4e b3 3d 02 ff 2f 3d 89 a3 5d bd d5 db f0 3c
       0.08755183 0.042967804 -0.054111037 0.0294017
0001f0 4c c7 04 3d 7b 21 eb bd 81 0d f7 bc 40 7a 8c 3d
       0.032416627 -0.11480995 -0.030157806 0.06859255

weight f4 [128]
000000 a2 d6 b7 3f 1e 59 b3 3f 03 be c4 3f 3f f0 a7 3f
       1.4362376 1.4011571 1.5370487 1.3120192
000010 d0 73 a4 3f fe 8b bd 3f 4b e3 d7 3f 55 12 ba 3f
       1.2847843 1.4808347 1.6866239 1.4536844
000020 03 29 a1 3f 5d 64 a6 3f 2a 3a 87 3f 6a 79 c3 3f
       1.2590641 1.2999378 1.0564625 1.5271428
000030 cc 53 ac 3f 7e f1 cc 3f 2d a9 ae 3f cb ce b6 3f
       1.3463073 1.6011198 1.3645378 1.4281858
000040 e4 bd bc 3f b1 7a 9f 3f 07 e6 a8 3f 71 8e b2 3f
       1.474545 1.2459317 1.3195199 1.394972
000050 c1 70 a0 3f fc fb b7 3f 29 75 ae 3f a8 ec a9 3f
       1.253441 1.4373775 1.3629504 1.3275347
000060 7e 9f b0 3f 42 b1 a4 3f 45 c0 cb 3f 69 b5 b8 3f
       1.3798673 1.2866595 1.5918051 1.4430362
000070 1b 92 c1 3f 0a 2b a4 3f 7a 64 be 3f 9f 58 b1 3f
       1.5122713 1.2825634 1.4874413 1.385517
000080 c1 f8 b2 3f 83 c8 a2 3f 88 a2 bb 3f f4 6f a2 3f
       1.3982164 1.2717441 1.4658976 1.2690415
000090 a1 98 ac 3f 4a cc b2 3f 59 08 b8 3f 3f a1 ad 3f
       1.3484079 1.3968594 1.4377548 1.3564833
0000a0 85 bd b3 3f 36 b9 bb 3f f6 db 9c 3f 08 5d a5 3f
       1.4042212 1.4665897 1.2254627 1.2919016
0000b0 67 2f b4 3f 5f 49 bf 3f dd ee ad 3f d0 c3 b3 3f
       1.4076966 1.4944266 1.358852 1.4044132
0000c0 50 17 ab 3f aa 5d ba 3f 16 67 b7 3f d7 f3 a7 3f
       1.336649 1.4559834 1.4328334 1.3121289
0000d0 0a e6 af 3f 96 eb bf 3f 95 26 a1 3f da 5a ac 3f
       1.3742077 1.499377 1.2589899 1.3465226
0000e0 78 6f b1 3f 86 e9 b3 3f 36 04 9d 3f 30 66 bc 3f
       1.3862143 1.4055641 1.226691 1.4718685
0000f0 75 0b b0 3f 9c b0 aa 3f 81 5e a7 3f 04 9c ab 3f
       1.3753496 1.3335147 1.3075715 1.3406987
000100 56 15 a5 3f 00 9a ad 3f 7f 49 b2 3f 4f 57 bd 3f
       1.2897136 1.3562622 1.3928679 1.479227
000110 61 13 c1 3f a4 64 a3 3f 3f 9c b5 3f 2b 06 a1 3f
       1.5084039 1.2765088 1.4188308 1.2580007
000120 c5 0e ae 3f 36 b9 aa 3f 12 b1 b7 3f 87 c2 b9 3f
       1.3598257 1.3337772 1.4350913 1.451249
000130 0b 88 a2 3f 79 68 cf 3f 0c ce bc 3f ad 17 b3 3f
       1.2697767 1.6203758 1.475038 1.39916
000140 d7 5b c0 3f 12 73 b3 3f f3 c1 bd 3f 5d 4e b8 3f
       1.5028027 1.4019492 1.4824814 1.4398915
000150 3b 21 97 3f 27 83 9f 3f c6 22 b7 3f af 00 bc 3f
       1.1807016 1.24619 1.4307487 1.4687709
000160 dc 38 b0 3f f7 53 a2 3f 53 de b7 3f a4 22 ba 3f
       1.3767352 1.2681874 1.4364723 1.4541821
000170 24 b8 a2 3f bb 60 bc 3f 4e 3e ad 3f 48 a6 b1 3f
       1.2712445 1.471702 1.3534639 1.387887
000180 8b 1c a5 3f fd 4a a8 3f aa f2 ad 3f f3 13 ab 3f
       1.2899336 1.3147885 1.358968 1.3365463
000190 f1 23 aa 3f d2 a0 b9 3f 98 39 bb 3f 1e 1c b3 3f
       1.3292218 1.4502203 1.4626951 1.3992956
0001a0 61 02 b0 3f 6b 5d bb 3f 4d 40 a5 3f c8 fe a7 3f
       1.3750726 1.4637884 1.2910248 1.3124628
0001b0 61 67 b5 3f cd d5 af 3f 9e a8 b3 3f 0e 08 b5 3f
       1.4172174 1.3737122 1.4035833 1.4143083
0001c0 9e 86 d2 3f 4f 1a a9 3f 2b a0 a9 3f 7c 06 b7 3f
       1.6447332 1.3211154 1.3252004 1.4298854
0001d0 61 48 b5 3f 51 37 a7 3f d3 fc c0 3f bd 3c b2 3f
       1.4162713 1.3063756 1.5077156 1.3924786
0001e0 77 ae ab 3f b9 d9 b7 3f ac 08 bd 3f 6a 25 af 3f
       1.3412617 1.4363319 1.4768271 1.3683293
0001f0 7c 54 ad 3f 21 79 ae 3f 62 80 c8 3f 9d bb d3 3f
       1.3541408 1.3630716 1.5664179 1.654163
